#map = affine_map<(d0, d1, d2, d3) -> (d0, d1, d3)>
#map1 = affine_map<(d0, d1, d2, d3) -> (d0, d1, d2, d3)>
module @module {
  util.global private @__auto.token_embd.weight {stream.affinity = #hal.device.promise<@__device_0>} = #stream.parameter.named<"model"::"token_embd.weight"> : tensor<256x256xf32>
  util.global private @__auto.token_embd.weight$1 {stream.affinity = #hal.device.promise<@__device_1>} = #stream.parameter.named<"model"::"token_embd.weight"> : tensor<256x256xf32>
  util.global private @__auto.blk.0.attn_norm.weight {stream.affinity = #hal.device.promise<@__device_0>} = #stream.parameter.named<"model"::"blk.0.attn_norm.weight"> : tensor<256xf32>
  util.global private @__auto.blk.0.attn_norm.weight$1 {stream.affinity = #hal.device.promise<@__device_1>} = #stream.parameter.named<"model"::"blk.0.attn_norm.weight"> : tensor<256xf32>
  util.global private @__auto.blk.0.attn_q.weight.shard.0 {stream.affinity = #hal.device.promise<@__device_0>} = #stream.parameter.named<"model"::"blk.0.attn_q.weight.shard.0"> : tensor<128x256xf32>
  util.global private @__auto.blk.0.attn_q.weight.shard.1 {stream.affinity = #hal.device.promise<@__device_1>} = #stream.parameter.named<"model"::"blk.0.attn_q.weight.shard.1"> : tensor<128x256xf32>
  util.global private @__auto.blk.0.attn_k.weight.shard.0 {stream.affinity = #hal.device.promise<@__device_0>} = #stream.parameter.named<"model"::"blk.0.attn_k.weight.shard.0"> : tensor<64x256xf32>
  util.global private @__auto.blk.0.attn_k.weight.shard.1 {stream.affinity = #hal.device.promise<@__device_1>} = #stream.parameter.named<"model"::"blk.0.attn_k.weight.shard.1"> : tensor<64x256xf32>
  util.global private @__auto.blk.0.attn_v.weight.shard.0 {stream.affinity = #hal.device.promise<@__device_0>} = #stream.parameter.named<"model"::"blk.0.attn_v.weight.shard.0"> : tensor<64x256xf32>
  util.global private @__auto.blk.0.attn_v.weight.shard.1 {stream.affinity = #hal.device.promise<@__device_1>} = #stream.parameter.named<"model"::"blk.0.attn_v.weight.shard.1"> : tensor<64x256xf32>
  util.global private @__auto.blk.0.attn_output.weight.shard.0 {stream.affinity = #hal.device.promise<@__device_0>} = #stream.parameter.named<"model"::"blk.0.attn_output.weight.shard.0"> : tensor<256x128xf32>
  util.global private @__auto.blk.0.attn_output.weight.shard.1 {stream.affinity = #hal.device.promise<@__device_1>} = #stream.parameter.named<"model"::"blk.0.attn_output.weight.shard.1"> : tensor<256x128xf32>
  util.global private @__auto.blk.0.ffn_norm.weight {stream.affinity = #hal.device.promise<@__device_0>} = #stream.parameter.named<"model"::"blk.0.ffn_norm.weight"> : tensor<256xf32>
  util.global private @__auto.blk.0.ffn_norm.weight$1 {stream.affinity = #hal.device.promise<@__device_1>} = #stream.parameter.named<"model"::"blk.0.ffn_norm.weight"> : tensor<256xf32>
  util.global private @__auto.blk.0.ffn_gate.weight.shard.0 {stream.affinity = #hal.device.promise<@__device_0>} = #stream.parameter.named<"model"::"blk.0.ffn_gate.weight.shard.0"> : tensor<12x256xf32>
  util.global private @__auto.blk.0.ffn_gate.weight.shard.1 {stream.affinity = #hal.device.promise<@__device_1>} = #stream.parameter.named<"model"::"blk.0.ffn_gate.weight.shard.1"> : tensor<11x256xf32>
  util.global private @__auto.blk.0.ffn_up.weight.shard.0 {stream.affinity = #hal.device.promise<@__device_0>} = #stream.parameter.named<"model"::"blk.0.ffn_up.weight.shard.0"> : tensor<12x256xf32>
  util.global private @__auto.blk.0.ffn_up.weight.shard.1 {stream.affinity = #hal.device.promise<@__device_1>} = #stream.parameter.named<"model"::"blk.0.ffn_up.weight.shard.1"> : tensor<11x256xf32>
  util.global private @__auto.blk.0.ffn_down.weight.shard.0 {stream.affinity = #hal.device.promise<@__device_0>} = #stream.parameter.named<"model"::"blk.0.ffn_down.weight.shard.0"> : tensor<256x12xf32>
  util.global private @__auto.blk.0.ffn_down.weight.shard.1 {stream.affinity = #hal.device.promise<@__device_1>} = #stream.parameter.named<"model"::"blk.0.ffn_down.weight.shard.1"> : tensor<256x11xf32>
  util.global private @__auto.blk.1.attn_norm.weight {stream.affinity = #hal.device.promise<@__device_0>} = #stream.parameter.named<"model"::"blk.1.attn_norm.weight"> : tensor<256xf32>
  util.global private @__auto.blk.1.attn_norm.weight$1 {stream.affinity = #hal.device.promise<@__device_1>} = #stream.parameter.named<"model"::"blk.1.attn_norm.weight"> : tensor<256xf32>
  util.global private @__auto.blk.1.attn_q.weight.shard.0 {stream.affinity = #hal.device.promise<@__device_0>} = #stream.parameter.named<"model"::"blk.1.attn_q.weight.shard.0"> : tensor<128x256xf32>
  util.global private @__auto.blk.1.attn_q.weight.shard.1 {stream.affinity = #hal.device.promise<@__device_1>} = #stream.parameter.named<"model"::"blk.1.attn_q.weight.shard.1"> : tensor<128x256xf32>
  util.global private @__auto.blk.1.attn_k.weight.shard.0 {stream.affinity = #hal.device.promise<@__device_0>} = #stream.parameter.named<"model"::"blk.1.attn_k.weight.shard.0"> : tensor<64x256xf32>
  util.global private @__auto.blk.1.attn_k.weight.shard.1 {stream.affinity = #hal.device.promise<@__device_1>} = #stream.parameter.named<"model"::"blk.1.attn_k.weight.shard.1"> : tensor<64x256xf32>
  util.global private @__auto.blk.1.attn_v.weight.shard.0 {stream.affinity = #hal.device.promise<@__device_0>} = #stream.parameter.named<"model"::"blk.1.attn_v.weight.shard.0"> : tensor<64x256xf32>
  util.global private @__auto.blk.1.attn_v.weight.shard.1 {stream.affinity = #hal.device.promise<@__device_1>} = #stream.parameter.named<"model"::"blk.1.attn_v.weight.shard.1"> : tensor<64x256xf32>
  util.global private @__auto.blk.1.attn_output.weight.shard.0 {stream.affinity = #hal.device.promise<@__device_0>} = #stream.parameter.named<"model"::"blk.1.attn_output.weight.shard.0"> : tensor<256x128xf32>
  util.global private @__auto.blk.1.attn_output.weight.shard.1 {stream.affinity = #hal.device.promise<@__device_1>} = #stream.parameter.named<"model"::"blk.1.attn_output.weight.shard.1"> : tensor<256x128xf32>
  util.global private @__auto.blk.1.ffn_norm.weight {stream.affinity = #hal.device.promise<@__device_0>} = #stream.parameter.named<"model"::"blk.1.ffn_norm.weight"> : tensor<256xf32>
  util.global private @__auto.blk.1.ffn_norm.weight$1 {stream.affinity = #hal.device.promise<@__device_1>} = #stream.parameter.named<"model"::"blk.1.ffn_norm.weight"> : tensor<256xf32>
  util.global private @__auto.blk.1.ffn_gate.weight.shard.0 {stream.affinity = #hal.device.promise<@__device_0>} = #stream.parameter.named<"model"::"blk.1.ffn_gate.weight.shard.0"> : tensor<12x256xf32>
  util.global private @__auto.blk.1.ffn_gate.weight.shard.1 {stream.affinity = #hal.device.promise<@__device_1>} = #stream.parameter.named<"model"::"blk.1.ffn_gate.weight.shard.1"> : tensor<11x256xf32>
  util.global private @__auto.blk.1.ffn_up.weight.shard.0 {stream.affinity = #hal.device.promise<@__device_0>} = #stream.parameter.named<"model"::"blk.1.ffn_up.weight.shard.0"> : tensor<12x256xf32>
  util.global private @__auto.blk.1.ffn_up.weight.shard.1 {stream.affinity = #hal.device.promise<@__device_1>} = #stream.parameter.named<"model"::"blk.1.ffn_up.weight.shard.1"> : tensor<11x256xf32>
  util.global private @__auto.blk.1.ffn_down.weight.shard.0 {stream.affinity = #hal.device.promise<@__device_0>} = #stream.parameter.named<"model"::"blk.1.ffn_down.weight.shard.0"> : tensor<256x12xf32>
  util.global private @__auto.blk.1.ffn_down.weight.shard.1 {stream.affinity = #hal.device.promise<@__device_1>} = #stream.parameter.named<"model"::"blk.1.ffn_down.weight.shard.1"> : tensor<256x11xf32>
  util.global private @__auto.blk.2.attn_norm.weight {stream.affinity = #hal.device.promise<@__device_0>} = #stream.parameter.named<"model"::"blk.2.attn_norm.weight"> : tensor<256xf32>
  util.global private @__auto.blk.2.attn_norm.weight$1 {stream.affinity = #hal.device.promise<@__device_1>} = #stream.parameter.named<"model"::"blk.2.attn_norm.weight"> : tensor<256xf32>
  util.global private @__auto.blk.2.attn_q.weight.shard.0 {stream.affinity = #hal.device.promise<@__device_0>} = #stream.parameter.named<"model"::"blk.2.attn_q.weight.shard.0"> : tensor<128x256xf32>
  util.global private @__auto.blk.2.attn_q.weight.shard.1 {stream.affinity = #hal.device.promise<@__device_1>} = #stream.parameter.named<"model"::"blk.2.attn_q.weight.shard.1"> : tensor<128x256xf32>
  util.global private @__auto.blk.2.attn_k.weight.shard.0 {stream.affinity = #hal.device.promise<@__device_0>} = #stream.parameter.named<"model"::"blk.2.attn_k.weight.shard.0"> : tensor<64x256xf32>
  util.global private @__auto.blk.2.attn_k.weight.shard.1 {stream.affinity = #hal.device.promise<@__device_1>} = #stream.parameter.named<"model"::"blk.2.attn_k.weight.shard.1"> : tensor<64x256xf32>
  util.global private @__auto.blk.2.attn_v.weight.shard.0 {stream.affinity = #hal.device.promise<@__device_0>} = #stream.parameter.named<"model"::"blk.2.attn_v.weight.shard.0"> : tensor<64x256xf32>
  util.global private @__auto.blk.2.attn_v.weight.shard.1 {stream.affinity = #hal.device.promise<@__device_1>} = #stream.parameter.named<"model"::"blk.2.attn_v.weight.shard.1"> : tensor<64x256xf32>
  util.global private @__auto.blk.2.attn_output.weight.shard.0 {stream.affinity = #hal.device.promise<@__device_0>} = #stream.parameter.named<"model"::"blk.2.attn_output.weight.shard.0"> : tensor<256x128xf32>
  util.global private @__auto.blk.2.attn_output.weight.shard.1 {stream.affinity = #hal.device.promise<@__device_1>} = #stream.parameter.named<"model"::"blk.2.attn_output.weight.shard.1"> : tensor<256x128xf32>
  util.global private @__auto.blk.2.ffn_norm.weight {stream.affinity = #hal.device.promise<@__device_0>} = #stream.parameter.named<"model"::"blk.2.ffn_norm.weight"> : tensor<256xf32>
  util.global private @__auto.blk.2.ffn_norm.weight$1 {stream.affinity = #hal.device.promise<@__device_1>} = #stream.parameter.named<"model"::"blk.2.ffn_norm.weight"> : tensor<256xf32>
  util.global private @__auto.blk.2.ffn_gate.weight.shard.0 {stream.affinity = #hal.device.promise<@__device_0>} = #stream.parameter.named<"model"::"blk.2.ffn_gate.weight.shard.0"> : tensor<12x256xf32>
  util.global private @__auto.blk.2.ffn_gate.weight.shard.1 {stream.affinity = #hal.device.promise<@__device_1>} = #stream.parameter.named<"model"::"blk.2.ffn_gate.weight.shard.1"> : tensor<11x256xf32>
  util.global private @__auto.blk.2.ffn_up.weight.shard.0 {stream.affinity = #hal.device.promise<@__device_0>} = #stream.parameter.named<"model"::"blk.2.ffn_up.weight.shard.0"> : tensor<12x256xf32>
  util.global private @__auto.blk.2.ffn_up.weight.shard.1 {stream.affinity = #hal.device.promise<@__device_1>} = #stream.parameter.named<"model"::"blk.2.ffn_up.weight.shard.1"> : tensor<11x256xf32>
  util.global private @__auto.blk.2.ffn_down.weight.shard.0 {stream.affinity = #hal.device.promise<@__device_0>} = #stream.parameter.named<"model"::"blk.2.ffn_down.weight.shard.0"> : tensor<256x12xf32>
  util.global private @__auto.blk.2.ffn_down.weight.shard.1 {stream.affinity = #hal.device.promise<@__device_1>} = #stream.parameter.named<"model"::"blk.2.ffn_down.weight.shard.1"> : tensor<256x11xf32>
  util.global private @__auto.output_norm.weight {stream.affinity = #hal.device.promise<@__device_0>} = #stream.parameter.named<"model"::"output_norm.weight"> : tensor<1x256xf32>
  util.global private @__auto.output_norm.weight$1 {stream.affinity = #hal.device.promise<@__device_1>} = #stream.parameter.named<"model"::"output_norm.weight"> : tensor<1x256xf32>
  util.global private @__auto.output.weight.shard.0 {stream.affinity = #hal.device.promise<@__device_0>} = #stream.parameter.named<"model"::"output.weight.shard.0"> : tensor<256x128xf32>
  util.global private @__auto.output.weight.shard.1 {stream.affinity = #hal.device.promise<@__device_1>} = #stream.parameter.named<"model"::"output.weight.shard.1"> : tensor<256x128xf32>
  func.func @prefill_bs1(%arg0: !torch.vtensor<[1,?],si64> {iree.abi.affinity = #hal.device.promise<@__device_0>}, %arg1: !torch.vtensor<[1],si64> {iree.abi.affinity = #hal.device.promise<@__device_0>}, %arg2: !torch.vtensor<[1,?],si64> {iree.abi.affinity = #hal.device.promise<@__device_0>}, %arg3: !torch.tensor<[?,12288],f16> {iree.abi.affinity = #hal.device.promise<@__device_0>}, %arg4: !torch.tensor<[?,12288],f16> {iree.abi.affinity = #hal.device.promise<@__device_1>}) -> !torch.vtensor<[1,?,256],f16> attributes {torch.assume_strict_symbolic_shapes} {
    %__auto.token_embd.weight = util.global.load @__auto.token_embd.weight : tensor<256x256xf32>
    %0 = torch_c.from_builtin_tensor %__auto.token_embd.weight : tensor<256x256xf32> -> !torch.vtensor<[256,256],f32>
    %__auto.token_embd.weight$1 = util.global.load @__auto.token_embd.weight$1 : tensor<256x256xf32>
    %1 = torch_c.from_builtin_tensor %__auto.token_embd.weight$1 : tensor<256x256xf32> -> !torch.vtensor<[256,256],f32>
    %__auto.blk.0.attn_norm.weight = util.global.load @__auto.blk.0.attn_norm.weight : tensor<256xf32>
    %2 = torch_c.from_builtin_tensor %__auto.blk.0.attn_norm.weight : tensor<256xf32> -> !torch.vtensor<[256],f32>
    %__auto.blk.0.attn_norm.weight$1 = util.global.load @__auto.blk.0.attn_norm.weight$1 : tensor<256xf32>
    %3 = torch_c.from_builtin_tensor %__auto.blk.0.attn_norm.weight$1 : tensor<256xf32> -> !torch.vtensor<[256],f32>
    %__auto.blk.0.attn_q.weight.shard.0 = util.global.load @__auto.blk.0.attn_q.weight.shard.0 : tensor<128x256xf32>
    %4 = torch_c.from_builtin_tensor %__auto.blk.0.attn_q.weight.shard.0 : tensor<128x256xf32> -> !torch.vtensor<[128,256],f32>
    %__auto.blk.0.attn_q.weight.shard.1 = util.global.load @__auto.blk.0.attn_q.weight.shard.1 : tensor<128x256xf32>
    %5 = torch_c.from_builtin_tensor %__auto.blk.0.attn_q.weight.shard.1 : tensor<128x256xf32> -> !torch.vtensor<[128,256],f32>
    %__auto.blk.0.attn_k.weight.shard.0 = util.global.load @__auto.blk.0.attn_k.weight.shard.0 : tensor<64x256xf32>
    %6 = torch_c.from_builtin_tensor %__auto.blk.0.attn_k.weight.shard.0 : tensor<64x256xf32> -> !torch.vtensor<[64,256],f32>
    %__auto.blk.0.attn_k.weight.shard.1 = util.global.load @__auto.blk.0.attn_k.weight.shard.1 : tensor<64x256xf32>
    %7 = torch_c.from_builtin_tensor %__auto.blk.0.attn_k.weight.shard.1 : tensor<64x256xf32> -> !torch.vtensor<[64,256],f32>
    %__auto.blk.0.attn_v.weight.shard.0 = util.global.load @__auto.blk.0.attn_v.weight.shard.0 : tensor<64x256xf32>
    %8 = torch_c.from_builtin_tensor %__auto.blk.0.attn_v.weight.shard.0 : tensor<64x256xf32> -> !torch.vtensor<[64,256],f32>
    %__auto.blk.0.attn_v.weight.shard.1 = util.global.load @__auto.blk.0.attn_v.weight.shard.1 : tensor<64x256xf32>
    %9 = torch_c.from_builtin_tensor %__auto.blk.0.attn_v.weight.shard.1 : tensor<64x256xf32> -> !torch.vtensor<[64,256],f32>
    %__auto.blk.0.attn_output.weight.shard.0 = util.global.load @__auto.blk.0.attn_output.weight.shard.0 : tensor<256x128xf32>
    %10 = torch_c.from_builtin_tensor %__auto.blk.0.attn_output.weight.shard.0 : tensor<256x128xf32> -> !torch.vtensor<[256,128],f32>
    %__auto.blk.0.attn_output.weight.shard.1 = util.global.load @__auto.blk.0.attn_output.weight.shard.1 : tensor<256x128xf32>
    %11 = torch_c.from_builtin_tensor %__auto.blk.0.attn_output.weight.shard.1 : tensor<256x128xf32> -> !torch.vtensor<[256,128],f32>
    %__auto.blk.0.ffn_norm.weight = util.global.load @__auto.blk.0.ffn_norm.weight : tensor<256xf32>
    %12 = torch_c.from_builtin_tensor %__auto.blk.0.ffn_norm.weight : tensor<256xf32> -> !torch.vtensor<[256],f32>
    %__auto.blk.0.ffn_norm.weight$1 = util.global.load @__auto.blk.0.ffn_norm.weight$1 : tensor<256xf32>
    %13 = torch_c.from_builtin_tensor %__auto.blk.0.ffn_norm.weight$1 : tensor<256xf32> -> !torch.vtensor<[256],f32>
    %__auto.blk.0.ffn_gate.weight.shard.0 = util.global.load @__auto.blk.0.ffn_gate.weight.shard.0 : tensor<12x256xf32>
    %14 = torch_c.from_builtin_tensor %__auto.blk.0.ffn_gate.weight.shard.0 : tensor<12x256xf32> -> !torch.vtensor<[12,256],f32>
    %__auto.blk.0.ffn_gate.weight.shard.1 = util.global.load @__auto.blk.0.ffn_gate.weight.shard.1 : tensor<11x256xf32>
    %15 = torch_c.from_builtin_tensor %__auto.blk.0.ffn_gate.weight.shard.1 : tensor<11x256xf32> -> !torch.vtensor<[11,256],f32>
    %__auto.blk.0.ffn_up.weight.shard.0 = util.global.load @__auto.blk.0.ffn_up.weight.shard.0 : tensor<12x256xf32>
    %16 = torch_c.from_builtin_tensor %__auto.blk.0.ffn_up.weight.shard.0 : tensor<12x256xf32> -> !torch.vtensor<[12,256],f32>
    %__auto.blk.0.ffn_up.weight.shard.1 = util.global.load @__auto.blk.0.ffn_up.weight.shard.1 : tensor<11x256xf32>
    %17 = torch_c.from_builtin_tensor %__auto.blk.0.ffn_up.weight.shard.1 : tensor<11x256xf32> -> !torch.vtensor<[11,256],f32>
    %__auto.blk.0.ffn_down.weight.shard.0 = util.global.load @__auto.blk.0.ffn_down.weight.shard.0 : tensor<256x12xf32>
    %18 = torch_c.from_builtin_tensor %__auto.blk.0.ffn_down.weight.shard.0 : tensor<256x12xf32> -> !torch.vtensor<[256,12],f32>
    %__auto.blk.0.ffn_down.weight.shard.1 = util.global.load @__auto.blk.0.ffn_down.weight.shard.1 : tensor<256x11xf32>
    %19 = torch_c.from_builtin_tensor %__auto.blk.0.ffn_down.weight.shard.1 : tensor<256x11xf32> -> !torch.vtensor<[256,11],f32>
    %__auto.blk.1.attn_norm.weight = util.global.load @__auto.blk.1.attn_norm.weight : tensor<256xf32>
    %20 = torch_c.from_builtin_tensor %__auto.blk.1.attn_norm.weight : tensor<256xf32> -> !torch.vtensor<[256],f32>
    %__auto.blk.1.attn_norm.weight$1 = util.global.load @__auto.blk.1.attn_norm.weight$1 : tensor<256xf32>
    %21 = torch_c.from_builtin_tensor %__auto.blk.1.attn_norm.weight$1 : tensor<256xf32> -> !torch.vtensor<[256],f32>
    %__auto.blk.1.attn_q.weight.shard.0 = util.global.load @__auto.blk.1.attn_q.weight.shard.0 : tensor<128x256xf32>
    %22 = torch_c.from_builtin_tensor %__auto.blk.1.attn_q.weight.shard.0 : tensor<128x256xf32> -> !torch.vtensor<[128,256],f32>
    %__auto.blk.1.attn_q.weight.shard.1 = util.global.load @__auto.blk.1.attn_q.weight.shard.1 : tensor<128x256xf32>
    %23 = torch_c.from_builtin_tensor %__auto.blk.1.attn_q.weight.shard.1 : tensor<128x256xf32> -> !torch.vtensor<[128,256],f32>
    %__auto.blk.1.attn_k.weight.shard.0 = util.global.load @__auto.blk.1.attn_k.weight.shard.0 : tensor<64x256xf32>
    %24 = torch_c.from_builtin_tensor %__auto.blk.1.attn_k.weight.shard.0 : tensor<64x256xf32> -> !torch.vtensor<[64,256],f32>
    %__auto.blk.1.attn_k.weight.shard.1 = util.global.load @__auto.blk.1.attn_k.weight.shard.1 : tensor<64x256xf32>
    %25 = torch_c.from_builtin_tensor %__auto.blk.1.attn_k.weight.shard.1 : tensor<64x256xf32> -> !torch.vtensor<[64,256],f32>
    %__auto.blk.1.attn_v.weight.shard.0 = util.global.load @__auto.blk.1.attn_v.weight.shard.0 : tensor<64x256xf32>
    %26 = torch_c.from_builtin_tensor %__auto.blk.1.attn_v.weight.shard.0 : tensor<64x256xf32> -> !torch.vtensor<[64,256],f32>
    %__auto.blk.1.attn_v.weight.shard.1 = util.global.load @__auto.blk.1.attn_v.weight.shard.1 : tensor<64x256xf32>
    %27 = torch_c.from_builtin_tensor %__auto.blk.1.attn_v.weight.shard.1 : tensor<64x256xf32> -> !torch.vtensor<[64,256],f32>
    %__auto.blk.1.attn_output.weight.shard.0 = util.global.load @__auto.blk.1.attn_output.weight.shard.0 : tensor<256x128xf32>
    %28 = torch_c.from_builtin_tensor %__auto.blk.1.attn_output.weight.shard.0 : tensor<256x128xf32> -> !torch.vtensor<[256,128],f32>
    %__auto.blk.1.attn_output.weight.shard.1 = util.global.load @__auto.blk.1.attn_output.weight.shard.1 : tensor<256x128xf32>
    %29 = torch_c.from_builtin_tensor %__auto.blk.1.attn_output.weight.shard.1 : tensor<256x128xf32> -> !torch.vtensor<[256,128],f32>
    %__auto.blk.1.ffn_norm.weight = util.global.load @__auto.blk.1.ffn_norm.weight : tensor<256xf32>
    %30 = torch_c.from_builtin_tensor %__auto.blk.1.ffn_norm.weight : tensor<256xf32> -> !torch.vtensor<[256],f32>
    %__auto.blk.1.ffn_norm.weight$1 = util.global.load @__auto.blk.1.ffn_norm.weight$1 : tensor<256xf32>
    %31 = torch_c.from_builtin_tensor %__auto.blk.1.ffn_norm.weight$1 : tensor<256xf32> -> !torch.vtensor<[256],f32>
    %__auto.blk.1.ffn_gate.weight.shard.0 = util.global.load @__auto.blk.1.ffn_gate.weight.shard.0 : tensor<12x256xf32>
    %32 = torch_c.from_builtin_tensor %__auto.blk.1.ffn_gate.weight.shard.0 : tensor<12x256xf32> -> !torch.vtensor<[12,256],f32>
    %__auto.blk.1.ffn_gate.weight.shard.1 = util.global.load @__auto.blk.1.ffn_gate.weight.shard.1 : tensor<11x256xf32>
    %33 = torch_c.from_builtin_tensor %__auto.blk.1.ffn_gate.weight.shard.1 : tensor<11x256xf32> -> !torch.vtensor<[11,256],f32>
    %__auto.blk.1.ffn_up.weight.shard.0 = util.global.load @__auto.blk.1.ffn_up.weight.shard.0 : tensor<12x256xf32>
    %34 = torch_c.from_builtin_tensor %__auto.blk.1.ffn_up.weight.shard.0 : tensor<12x256xf32> -> !torch.vtensor<[12,256],f32>
    %__auto.blk.1.ffn_up.weight.shard.1 = util.global.load @__auto.blk.1.ffn_up.weight.shard.1 : tensor<11x256xf32>
    %35 = torch_c.from_builtin_tensor %__auto.blk.1.ffn_up.weight.shard.1 : tensor<11x256xf32> -> !torch.vtensor<[11,256],f32>
    %__auto.blk.1.ffn_down.weight.shard.0 = util.global.load @__auto.blk.1.ffn_down.weight.shard.0 : tensor<256x12xf32>
    %36 = torch_c.from_builtin_tensor %__auto.blk.1.ffn_down.weight.shard.0 : tensor<256x12xf32> -> !torch.vtensor<[256,12],f32>
    %__auto.blk.1.ffn_down.weight.shard.1 = util.global.load @__auto.blk.1.ffn_down.weight.shard.1 : tensor<256x11xf32>
    %37 = torch_c.from_builtin_tensor %__auto.blk.1.ffn_down.weight.shard.1 : tensor<256x11xf32> -> !torch.vtensor<[256,11],f32>
    %__auto.blk.2.attn_norm.weight = util.global.load @__auto.blk.2.attn_norm.weight : tensor<256xf32>
    %38 = torch_c.from_builtin_tensor %__auto.blk.2.attn_norm.weight : tensor<256xf32> -> !torch.vtensor<[256],f32>
    %__auto.blk.2.attn_norm.weight$1 = util.global.load @__auto.blk.2.attn_norm.weight$1 : tensor<256xf32>
    %39 = torch_c.from_builtin_tensor %__auto.blk.2.attn_norm.weight$1 : tensor<256xf32> -> !torch.vtensor<[256],f32>
    %__auto.blk.2.attn_q.weight.shard.0 = util.global.load @__auto.blk.2.attn_q.weight.shard.0 : tensor<128x256xf32>
    %40 = torch_c.from_builtin_tensor %__auto.blk.2.attn_q.weight.shard.0 : tensor<128x256xf32> -> !torch.vtensor<[128,256],f32>
    %__auto.blk.2.attn_q.weight.shard.1 = util.global.load @__auto.blk.2.attn_q.weight.shard.1 : tensor<128x256xf32>
    %41 = torch_c.from_builtin_tensor %__auto.blk.2.attn_q.weight.shard.1 : tensor<128x256xf32> -> !torch.vtensor<[128,256],f32>
    %__auto.blk.2.attn_k.weight.shard.0 = util.global.load @__auto.blk.2.attn_k.weight.shard.0 : tensor<64x256xf32>
    %42 = torch_c.from_builtin_tensor %__auto.blk.2.attn_k.weight.shard.0 : tensor<64x256xf32> -> !torch.vtensor<[64,256],f32>
    %__auto.blk.2.attn_k.weight.shard.1 = util.global.load @__auto.blk.2.attn_k.weight.shard.1 : tensor<64x256xf32>
    %43 = torch_c.from_builtin_tensor %__auto.blk.2.attn_k.weight.shard.1 : tensor<64x256xf32> -> !torch.vtensor<[64,256],f32>
    %__auto.blk.2.attn_v.weight.shard.0 = util.global.load @__auto.blk.2.attn_v.weight.shard.0 : tensor<64x256xf32>
    %44 = torch_c.from_builtin_tensor %__auto.blk.2.attn_v.weight.shard.0 : tensor<64x256xf32> -> !torch.vtensor<[64,256],f32>
    %__auto.blk.2.attn_v.weight.shard.1 = util.global.load @__auto.blk.2.attn_v.weight.shard.1 : tensor<64x256xf32>
    %45 = torch_c.from_builtin_tensor %__auto.blk.2.attn_v.weight.shard.1 : tensor<64x256xf32> -> !torch.vtensor<[64,256],f32>
    %__auto.blk.2.attn_output.weight.shard.0 = util.global.load @__auto.blk.2.attn_output.weight.shard.0 : tensor<256x128xf32>
    %46 = torch_c.from_builtin_tensor %__auto.blk.2.attn_output.weight.shard.0 : tensor<256x128xf32> -> !torch.vtensor<[256,128],f32>
    %__auto.blk.2.attn_output.weight.shard.1 = util.global.load @__auto.blk.2.attn_output.weight.shard.1 : tensor<256x128xf32>
    %47 = torch_c.from_builtin_tensor %__auto.blk.2.attn_output.weight.shard.1 : tensor<256x128xf32> -> !torch.vtensor<[256,128],f32>
    %__auto.blk.2.ffn_norm.weight = util.global.load @__auto.blk.2.ffn_norm.weight : tensor<256xf32>
    %48 = torch_c.from_builtin_tensor %__auto.blk.2.ffn_norm.weight : tensor<256xf32> -> !torch.vtensor<[256],f32>
    %__auto.blk.2.ffn_norm.weight$1 = util.global.load @__auto.blk.2.ffn_norm.weight$1 : tensor<256xf32>
    %49 = torch_c.from_builtin_tensor %__auto.blk.2.ffn_norm.weight$1 : tensor<256xf32> -> !torch.vtensor<[256],f32>
    %__auto.blk.2.ffn_gate.weight.shard.0 = util.global.load @__auto.blk.2.ffn_gate.weight.shard.0 : tensor<12x256xf32>
    %50 = torch_c.from_builtin_tensor %__auto.blk.2.ffn_gate.weight.shard.0 : tensor<12x256xf32> -> !torch.vtensor<[12,256],f32>
    %__auto.blk.2.ffn_gate.weight.shard.1 = util.global.load @__auto.blk.2.ffn_gate.weight.shard.1 : tensor<11x256xf32>
    %51 = torch_c.from_builtin_tensor %__auto.blk.2.ffn_gate.weight.shard.1 : tensor<11x256xf32> -> !torch.vtensor<[11,256],f32>
    %__auto.blk.2.ffn_up.weight.shard.0 = util.global.load @__auto.blk.2.ffn_up.weight.shard.0 : tensor<12x256xf32>
    %52 = torch_c.from_builtin_tensor %__auto.blk.2.ffn_up.weight.shard.0 : tensor<12x256xf32> -> !torch.vtensor<[12,256],f32>
    %__auto.blk.2.ffn_up.weight.shard.1 = util.global.load @__auto.blk.2.ffn_up.weight.shard.1 : tensor<11x256xf32>
    %53 = torch_c.from_builtin_tensor %__auto.blk.2.ffn_up.weight.shard.1 : tensor<11x256xf32> -> !torch.vtensor<[11,256],f32>
    %__auto.blk.2.ffn_down.weight.shard.0 = util.global.load @__auto.blk.2.ffn_down.weight.shard.0 : tensor<256x12xf32>
    %54 = torch_c.from_builtin_tensor %__auto.blk.2.ffn_down.weight.shard.0 : tensor<256x12xf32> -> !torch.vtensor<[256,12],f32>
    %__auto.blk.2.ffn_down.weight.shard.1 = util.global.load @__auto.blk.2.ffn_down.weight.shard.1 : tensor<256x11xf32>
    %55 = torch_c.from_builtin_tensor %__auto.blk.2.ffn_down.weight.shard.1 : tensor<256x11xf32> -> !torch.vtensor<[256,11],f32>
    %__auto.output_norm.weight = util.global.load @__auto.output_norm.weight : tensor<1x256xf32>
    %56 = torch_c.from_builtin_tensor %__auto.output_norm.weight : tensor<1x256xf32> -> !torch.vtensor<[1,256],f32>
    %__auto.output_norm.weight$1 = util.global.load @__auto.output_norm.weight$1 : tensor<1x256xf32>
    %57 = torch_c.from_builtin_tensor %__auto.output_norm.weight$1 : tensor<1x256xf32> -> !torch.vtensor<[1,256],f32>
    %__auto.output.weight.shard.0 = util.global.load @__auto.output.weight.shard.0 : tensor<256x128xf32>
    %58 = torch_c.from_builtin_tensor %__auto.output.weight.shard.0 : tensor<256x128xf32> -> !torch.vtensor<[256,128],f32>
    %__auto.output.weight.shard.1 = util.global.load @__auto.output.weight.shard.1 : tensor<256x128xf32>
    %59 = torch_c.from_builtin_tensor %__auto.output.weight.shard.1 : tensor<256x128xf32> -> !torch.vtensor<[256,128],f32>
    %60 = torch.copy.to_vtensor %arg3 : !torch.vtensor<[?,12288],f16>
    %61 = torch.copy.to_vtensor %arg4 : !torch.vtensor<[?,12288],f16>
    %62 = torch.symbolic_int "32*s1" {min_val = 64, max_val = 96} : !torch.int
    %63 = torch.symbolic_int "s1" {min_val = 2, max_val = 3} : !torch.int
    %64 = torch.symbolic_int "s2" {min_val = 0, max_val = 9223372036854775807} : !torch.int
    torch.bind_symbolic_shape %arg0, [%63], affine_map<()[s0] -> (1, s0 * 32)> : !torch.vtensor<[1,?],si64>
    torch.bind_symbolic_shape %arg2, [%63], affine_map<()[s0] -> (1, s0)> : !torch.vtensor<[1,?],si64>
    torch.bind_symbolic_shape %60, [%64], affine_map<()[s0] -> (s0, 12288)> : !torch.vtensor<[?,12288],f16>
    torch.bind_symbolic_shape %61, [%64], affine_map<()[s0] -> (s0, 12288)> : !torch.vtensor<[?,12288],f16>
    %int1 = torch.constant.int 1
    %65 = torch.aten.size.int %arg2, %int1 : !torch.vtensor<[1,?],si64>, !torch.int -> !torch.int
    %int0 = torch.constant.int 0
    %66 = torch.aten.size.int %60, %int0 : !torch.vtensor<[?,12288],f16>, !torch.int -> !torch.int
    %int1_0 = torch.constant.int 1
    %67 = torch.aten.size.int %arg0, %int1_0 : !torch.vtensor<[1,?],si64>, !torch.int -> !torch.int
    %int0_1 = torch.constant.int 0
    %int1_2 = torch.constant.int 1
    %none = torch.constant.none
    %none_3 = torch.constant.none
    %cpu = torch.constant.device "cpu"
    %false = torch.constant.bool false
    %68 = torch.aten.arange.start_step %int0_1, %67, %int1_2, %none, %none_3, %cpu, %false : !torch.int, !torch.int, !torch.int, !torch.none, !torch.none, !torch.Device, !torch.bool -> !torch.vtensor<[?],si64>
    torch.bind_symbolic_shape %68, [%63], affine_map<()[s0] -> (s0 * 32)> : !torch.vtensor<[?],si64>
    %int-1 = torch.constant.int -1
    %69 = torch.aten.unsqueeze %arg1, %int-1 : !torch.vtensor<[1],si64>, !torch.int -> !torch.vtensor<[1,1],si64>
    %70 = torch.aten.ge.Tensor %68, %69 : !torch.vtensor<[?],si64>, !torch.vtensor<[1,1],si64> -> !torch.vtensor<[1,?],i1>
    torch.bind_symbolic_shape %70, [%63], affine_map<()[s0] -> (1, s0 * 32)> : !torch.vtensor<[1,?],i1>
    %int1_4 = torch.constant.int 1
    %int1_5 = torch.constant.int 1
    %71 = torch.prim.ListConstruct %int1_4, %int1_5 : (!torch.int, !torch.int) -> !torch.list<int>
    %int11 = torch.constant.int 11
    %none_6 = torch.constant.none
    %cpu_7 = torch.constant.device "cpu"
    %false_8 = torch.constant.bool false
    %72 = torch.aten.ones %71, %int11, %none_6, %cpu_7, %false_8 : !torch.list<int>, !torch.int, !torch.none, !torch.Device, !torch.bool -> !torch.vtensor<[1,1],i1>
    %int128 = torch.constant.int 128
    %int128_9 = torch.constant.int 128
    %73 = torch.prim.ListConstruct %int128, %int128_9 : (!torch.int, !torch.int) -> !torch.list<int>
    %false_10 = torch.constant.bool false
    %74 = torch.aten.expand %72, %73, %false_10 : !torch.vtensor<[1,1],i1>, !torch.list<int>, !torch.bool -> !torch.vtensor<[128,128],i1>
    %int1_11 = torch.constant.int 1
    %75 = torch.aten.triu %74, %int1_11 : !torch.vtensor<[128,128],i1>, !torch.int -> !torch.vtensor<[128,128],i1>
    %int0_12 = torch.constant.int 0
    %76 = torch.aten.unsqueeze %75, %int0_12 : !torch.vtensor<[128,128],i1>, !torch.int -> !torch.vtensor<[1,128,128],i1>
    %int1_13 = torch.constant.int 1
    %77 = torch.aten.unsqueeze %76, %int1_13 : !torch.vtensor<[1,128,128],i1>, !torch.int -> !torch.vtensor<[1,1,128,128],i1>
    %int2 = torch.constant.int 2
    %int0_14 = torch.constant.int 0
    %int9223372036854775807 = torch.constant.int 9223372036854775807
    %int1_15 = torch.constant.int 1
    %78 = torch.aten.slice.Tensor %77, %int2, %int0_14, %int9223372036854775807, %int1_15 : !torch.vtensor<[1,1,128,128],i1>, !torch.int, !torch.int, !torch.int, !torch.int -> !torch.vtensor<[1,1,128,128],i1>
    %int3 = torch.constant.int 3
    %int0_16 = torch.constant.int 0
    %int9223372036854775807_17 = torch.constant.int 9223372036854775807
    %int1_18 = torch.constant.int 1
    %79 = torch.aten.slice.Tensor %78, %int3, %int0_16, %int9223372036854775807_17, %int1_18 : !torch.vtensor<[1,1,128,128],i1>, !torch.int, !torch.int, !torch.int, !torch.int -> !torch.vtensor<[1,1,128,128],i1>
    %int0_19 = torch.constant.int 0
    %int0_20 = torch.constant.int 0
    %int9223372036854775807_21 = torch.constant.int 9223372036854775807
    %int1_22 = torch.constant.int 1
    %80 = torch.aten.slice.Tensor %79, %int0_19, %int0_20, %int9223372036854775807_21, %int1_22 : !torch.vtensor<[1,1,128,128],i1>, !torch.int, !torch.int, !torch.int, !torch.int -> !torch.vtensor<[1,1,128,128],i1>
    %int1_23 = torch.constant.int 1
    %int0_24 = torch.constant.int 0
    %int9223372036854775807_25 = torch.constant.int 9223372036854775807
    %int1_26 = torch.constant.int 1
    %81 = torch.aten.slice.Tensor %80, %int1_23, %int0_24, %int9223372036854775807_25, %int1_26 : !torch.vtensor<[1,1,128,128],i1>, !torch.int, !torch.int, !torch.int, !torch.int -> !torch.vtensor<[1,1,128,128],i1>
    %int2_27 = torch.constant.int 2
    %int0_28 = torch.constant.int 0
    %int1_29 = torch.constant.int 1
    %82 = torch.aten.slice.Tensor %81, %int2_27, %int0_28, %67, %int1_29 : !torch.vtensor<[1,1,128,128],i1>, !torch.int, !torch.int, !torch.int, !torch.int -> !torch.vtensor<[1,1,?,128],i1>
    torch.bind_symbolic_shape %82, [%63], affine_map<()[s0] -> (1, 1, s0 * 32, 128)> : !torch.vtensor<[1,1,?,128],i1>
    %int3_30 = torch.constant.int 3
    %int0_31 = torch.constant.int 0
    %int1_32 = torch.constant.int 1
    %83 = torch.aten.slice.Tensor %82, %int3_30, %int0_31, %67, %int1_32 : !torch.vtensor<[1,1,?,128],i1>, !torch.int, !torch.int, !torch.int, !torch.int -> !torch.vtensor<[1,1,?,?],i1>
    torch.bind_symbolic_shape %83, [%63], affine_map<()[s0] -> (1, 1, s0 * 32, s0 * 32)> : !torch.vtensor<[1,1,?,?],i1>
    %int0_33 = torch.constant.int 0
    %int0_34 = torch.constant.int 0
    %int9223372036854775807_35 = torch.constant.int 9223372036854775807
    %int1_36 = torch.constant.int 1
    %84 = torch.aten.slice.Tensor %70, %int0_33, %int0_34, %int9223372036854775807_35, %int1_36 : !torch.vtensor<[1,?],i1>, !torch.int, !torch.int, !torch.int, !torch.int -> !torch.vtensor<[1,?],i1>
    torch.bind_symbolic_shape %84, [%63], affine_map<()[s0] -> (1, s0 * 32)> : !torch.vtensor<[1,?],i1>
    %int1_37 = torch.constant.int 1
    %85 = torch.aten.unsqueeze %84, %int1_37 : !torch.vtensor<[1,?],i1>, !torch.int -> !torch.vtensor<[1,1,?],i1>
    torch.bind_symbolic_shape %85, [%63], affine_map<()[s0] -> (1, 1, s0 * 32)> : !torch.vtensor<[1,1,?],i1>
    %int2_38 = torch.constant.int 2
    %86 = torch.aten.unsqueeze %85, %int2_38 : !torch.vtensor<[1,1,?],i1>, !torch.int -> !torch.vtensor<[1,1,1,?],i1>
    torch.bind_symbolic_shape %86, [%63], affine_map<()[s0] -> (1, 1, 1, s0 * 32)> : !torch.vtensor<[1,1,1,?],i1>
    %int3_39 = torch.constant.int 3
    %int0_40 = torch.constant.int 0
    %int9223372036854775807_41 = torch.constant.int 9223372036854775807
    %int1_42 = torch.constant.int 1
    %87 = torch.aten.slice.Tensor %86, %int3_39, %int0_40, %int9223372036854775807_41, %int1_42 : !torch.vtensor<[1,1,1,?],i1>, !torch.int, !torch.int, !torch.int, !torch.int -> !torch.vtensor<[1,1,1,?],i1>
    torch.bind_symbolic_shape %87, [%63], affine_map<()[s0] -> (1, 1, 1, s0 * 32)> : !torch.vtensor<[1,1,1,?],i1>
    %88 = torch.aten.logical_or %83, %87 : !torch.vtensor<[1,1,?,?],i1>, !torch.vtensor<[1,1,1,?],i1> -> !torch.vtensor<[1,1,?,?],i1>
    torch.bind_symbolic_shape %88, [%63], affine_map<()[s0] -> (1, 1, s0 * 32, s0 * 32)> : !torch.vtensor<[1,1,?,?],i1>
    %int0_43 = torch.constant.int 0
    %int6 = torch.constant.int 6
    %int0_44 = torch.constant.int 0
    %cpu_45 = torch.constant.device "cpu"
    %none_46 = torch.constant.none
    %89 = torch.aten.scalar_tensor %int0_43, %int6, %int0_44, %cpu_45, %none_46 : !torch.int, !torch.int, !torch.int, !torch.Device, !torch.none -> !torch.vtensor<[],f32>
    %float-Inf = torch.constant.float 0xFFF0000000000000
    %int6_47 = torch.constant.int 6
    %int0_48 = torch.constant.int 0
    %cpu_49 = torch.constant.device "cpu"
    %none_50 = torch.constant.none
    %90 = torch.aten.scalar_tensor %float-Inf, %int6_47, %int0_48, %cpu_49, %none_50 : !torch.float, !torch.int, !torch.int, !torch.Device, !torch.none -> !torch.vtensor<[],f32>
    %91 = torch.aten.where.self %88, %90, %89 : !torch.vtensor<[1,1,?,?],i1>, !torch.vtensor<[],f32>, !torch.vtensor<[],f32> -> !torch.vtensor<[1,1,?,?],f32>
    torch.bind_symbolic_shape %91, [%63], affine_map<()[s0] -> (1, 1, s0 * 32, s0 * 32)> : !torch.vtensor<[1,1,?,?],f32>
    %int5 = torch.constant.int 5
    %92 = torch.prims.convert_element_type %91, %int5 : !torch.vtensor<[1,1,?,?],f32>, !torch.int -> !torch.vtensor<[1,1,?,?],f16>
    torch.bind_symbolic_shape %92, [%63], affine_map<()[s0] -> (1, 1, s0 * 32, s0 * 32)> : !torch.vtensor<[1,1,?,?],f16>
    %int5_51 = torch.constant.int 5
    %93 = torch.prims.convert_element_type %92, %int5_51 : !torch.vtensor<[1,1,?,?],f16>, !torch.int -> !torch.vtensor<[1,1,?,?],f16>
    torch.bind_symbolic_shape %93, [%63], affine_map<()[s0] -> (1, 1, s0 * 32, s0 * 32)> : !torch.vtensor<[1,1,?,?],f16>
    %94 = torch_c.to_builtin_tensor %arg0 : !torch.vtensor<[1,?],si64> -> tensor<1x?xi64>
    %c1 = arith.constant 1 : index
    %dim = tensor.dim %94, %c1 : tensor<1x?xi64>
    %95 = flow.tensor.transfer %94 : tensor<1x?xi64>{%dim} to #hal.device.promise<@__device_0>
    %96 = torch_c.from_builtin_tensor %95 : tensor<1x?xi64> -> !torch.vtensor<[1,?],si64>
    torch.bind_symbolic_shape %96, [%63], affine_map<()[s0] -> (1, s0 * 32)> : !torch.vtensor<[1,?],si64>
    %97 = torch_c.to_builtin_tensor %arg0 : !torch.vtensor<[1,?],si64> -> tensor<1x?xi64>
    %c1_52 = arith.constant 1 : index
    %dim_53 = tensor.dim %97, %c1_52 : tensor<1x?xi64>
    %98 = flow.tensor.transfer %97 : tensor<1x?xi64>{%dim_53} to #hal.device.promise<@__device_1>
    %99 = torch_c.from_builtin_tensor %98 : tensor<1x?xi64> -> !torch.vtensor<[1,?],si64>
    torch.bind_symbolic_shape %99, [%63], affine_map<()[s0] -> (1, s0 * 32)> : !torch.vtensor<[1,?],si64>
    %100 = torch_c.to_builtin_tensor %93 : !torch.vtensor<[1,1,?,?],f16> -> tensor<1x1x?x?xf16>
    %c2 = arith.constant 2 : index
    %dim_54 = tensor.dim %100, %c2 : tensor<1x1x?x?xf16>
    %c3 = arith.constant 3 : index
    %dim_55 = tensor.dim %100, %c3 : tensor<1x1x?x?xf16>
    %101 = flow.tensor.transfer %100 : tensor<1x1x?x?xf16>{%dim_54, %dim_55} to #hal.device.promise<@__device_0>
    %102 = torch_c.from_builtin_tensor %101 : tensor<1x1x?x?xf16> -> !torch.vtensor<[1,1,?,?],f16>
    torch.bind_symbolic_shape %102, [%63], affine_map<()[s0] -> (1, 1, s0 * 32, s0 * 32)> : !torch.vtensor<[1,1,?,?],f16>
    %103 = torch_c.to_builtin_tensor %93 : !torch.vtensor<[1,1,?,?],f16> -> tensor<1x1x?x?xf16>
    %c2_56 = arith.constant 2 : index
    %dim_57 = tensor.dim %103, %c2_56 : tensor<1x1x?x?xf16>
    %c3_58 = arith.constant 3 : index
    %dim_59 = tensor.dim %103, %c3_58 : tensor<1x1x?x?xf16>
    %104 = flow.tensor.transfer %103 : tensor<1x1x?x?xf16>{%dim_57, %dim_59} to #hal.device.promise<@__device_1>
    %105 = torch_c.from_builtin_tensor %104 : tensor<1x1x?x?xf16> -> !torch.vtensor<[1,1,?,?],f16>
    torch.bind_symbolic_shape %105, [%63], affine_map<()[s0] -> (1, 1, s0 * 32, s0 * 32)> : !torch.vtensor<[1,1,?,?],f16>
    %106 = torch_c.to_builtin_tensor %arg2 : !torch.vtensor<[1,?],si64> -> tensor<1x?xi64>
    %c1_60 = arith.constant 1 : index
    %dim_61 = tensor.dim %106, %c1_60 : tensor<1x?xi64>
    %107 = flow.tensor.transfer %106 : tensor<1x?xi64>{%dim_61} to #hal.device.promise<@__device_0>
    %108 = torch_c.from_builtin_tensor %107 : tensor<1x?xi64> -> !torch.vtensor<[1,?],si64>
    torch.bind_symbolic_shape %108, [%63], affine_map<()[s0] -> (1, s0)> : !torch.vtensor<[1,?],si64>
    %109 = torch_c.to_builtin_tensor %arg2 : !torch.vtensor<[1,?],si64> -> tensor<1x?xi64>
    %c1_62 = arith.constant 1 : index
    %dim_63 = tensor.dim %109, %c1_62 : tensor<1x?xi64>
    %110 = flow.tensor.transfer %109 : tensor<1x?xi64>{%dim_63} to #hal.device.promise<@__device_1>
    %111 = torch_c.from_builtin_tensor %110 : tensor<1x?xi64> -> !torch.vtensor<[1,?],si64>
    torch.bind_symbolic_shape %111, [%63], affine_map<()[s0] -> (1, s0)> : !torch.vtensor<[1,?],si64>
    %int5_64 = torch.constant.int 5
    %112 = torch.prims.convert_element_type %0, %int5_64 : !torch.vtensor<[256,256],f32>, !torch.int -> !torch.vtensor<[256,256],f16>
    %int-1_65 = torch.constant.int -1
    %false_66 = torch.constant.bool false
    %false_67 = torch.constant.bool false
    %113 = torch.aten.embedding %112, %96, %int-1_65, %false_66, %false_67 : !torch.vtensor<[256,256],f16>, !torch.vtensor<[1,?],si64>, !torch.int, !torch.bool, !torch.bool -> !torch.vtensor<[1,?,256],f16>
    torch.bind_symbolic_shape %113, [%63], affine_map<()[s0] -> (1, s0 * 32, 256)> : !torch.vtensor<[1,?,256],f16>
    %int5_68 = torch.constant.int 5
    %114 = torch.prims.convert_element_type %1, %int5_68 : !torch.vtensor<[256,256],f32>, !torch.int -> !torch.vtensor<[256,256],f16>
    %int-1_69 = torch.constant.int -1
    %false_70 = torch.constant.bool false
    %false_71 = torch.constant.bool false
    %115 = torch.aten.embedding %114, %99, %int-1_69, %false_70, %false_71 : !torch.vtensor<[256,256],f16>, !torch.vtensor<[1,?],si64>, !torch.int, !torch.bool, !torch.bool -> !torch.vtensor<[1,?,256],f16>
    torch.bind_symbolic_shape %115, [%63], affine_map<()[s0] -> (1, s0 * 32, 256)> : !torch.vtensor<[1,?,256],f16>
    %int6_72 = torch.constant.int 6
    %116 = torch.prims.convert_element_type %113, %int6_72 : !torch.vtensor<[1,?,256],f16>, !torch.int -> !torch.vtensor<[1,?,256],f32>
    torch.bind_symbolic_shape %116, [%63], affine_map<()[s0] -> (1, s0 * 32, 256)> : !torch.vtensor<[1,?,256],f32>
    %int6_73 = torch.constant.int 6
    %117 = torch.prims.convert_element_type %115, %int6_73 : !torch.vtensor<[1,?,256],f16>, !torch.int -> !torch.vtensor<[1,?,256],f32>
    torch.bind_symbolic_shape %117, [%63], affine_map<()[s0] -> (1, s0 * 32, 256)> : !torch.vtensor<[1,?,256],f32>
    %int2_74 = torch.constant.int 2
    %118 = torch.aten.pow.Tensor_Scalar %116, %int2_74 : !torch.vtensor<[1,?,256],f32>, !torch.int -> !torch.vtensor<[1,?,256],f32>
    torch.bind_symbolic_shape %118, [%63], affine_map<()[s0] -> (1, s0 * 32, 256)> : !torch.vtensor<[1,?,256],f32>
    %int2_75 = torch.constant.int 2
    %119 = torch.aten.pow.Tensor_Scalar %117, %int2_75 : !torch.vtensor<[1,?,256],f32>, !torch.int -> !torch.vtensor<[1,?,256],f32>
    torch.bind_symbolic_shape %119, [%63], affine_map<()[s0] -> (1, s0 * 32, 256)> : !torch.vtensor<[1,?,256],f32>
    %int-1_76 = torch.constant.int -1
    %120 = torch.prim.ListConstruct %int-1_76 : (!torch.int) -> !torch.list<int>
    %true = torch.constant.bool true
    %none_77 = torch.constant.none
    %121 = torch.aten.mean.dim %118, %120, %true, %none_77 : !torch.vtensor<[1,?,256],f32>, !torch.list<int>, !torch.bool, !torch.none -> !torch.vtensor<[1,?,1],f32>
    torch.bind_symbolic_shape %121, [%63], affine_map<()[s0] -> (1, s0 * 32, 1)> : !torch.vtensor<[1,?,1],f32>
    %int-1_78 = torch.constant.int -1
    %122 = torch.prim.ListConstruct %int-1_78 : (!torch.int) -> !torch.list<int>
    %true_79 = torch.constant.bool true
    %none_80 = torch.constant.none
    %123 = torch.aten.mean.dim %119, %122, %true_79, %none_80 : !torch.vtensor<[1,?,256],f32>, !torch.list<int>, !torch.bool, !torch.none -> !torch.vtensor<[1,?,1],f32>
    torch.bind_symbolic_shape %123, [%63], affine_map<()[s0] -> (1, s0 * 32, 1)> : !torch.vtensor<[1,?,1],f32>
    %float1.000000e-02 = torch.constant.float 1.000000e-02
    %int1_81 = torch.constant.int 1
    %124 = torch.aten.add.Scalar %121, %float1.000000e-02, %int1_81 : !torch.vtensor<[1,?,1],f32>, !torch.float, !torch.int -> !torch.vtensor<[1,?,1],f32>
    torch.bind_symbolic_shape %124, [%63], affine_map<()[s0] -> (1, s0 * 32, 1)> : !torch.vtensor<[1,?,1],f32>
    %float1.000000e-02_82 = torch.constant.float 1.000000e-02
    %int1_83 = torch.constant.int 1
    %125 = torch.aten.add.Scalar %123, %float1.000000e-02_82, %int1_83 : !torch.vtensor<[1,?,1],f32>, !torch.float, !torch.int -> !torch.vtensor<[1,?,1],f32>
    torch.bind_symbolic_shape %125, [%63], affine_map<()[s0] -> (1, s0 * 32, 1)> : !torch.vtensor<[1,?,1],f32>
    %126 = torch.aten.rsqrt %124 : !torch.vtensor<[1,?,1],f32> -> !torch.vtensor<[1,?,1],f32>
    torch.bind_symbolic_shape %126, [%63], affine_map<()[s0] -> (1, s0 * 32, 1)> : !torch.vtensor<[1,?,1],f32>
    %127 = torch.aten.rsqrt %125 : !torch.vtensor<[1,?,1],f32> -> !torch.vtensor<[1,?,1],f32>
    torch.bind_symbolic_shape %127, [%63], affine_map<()[s0] -> (1, s0 * 32, 1)> : !torch.vtensor<[1,?,1],f32>
    %128 = torch.aten.mul.Tensor %116, %126 : !torch.vtensor<[1,?,256],f32>, !torch.vtensor<[1,?,1],f32> -> !torch.vtensor<[1,?,256],f32>
    torch.bind_symbolic_shape %128, [%63], affine_map<()[s0] -> (1, s0 * 32, 256)> : !torch.vtensor<[1,?,256],f32>
    %129 = torch.aten.mul.Tensor %117, %127 : !torch.vtensor<[1,?,256],f32>, !torch.vtensor<[1,?,1],f32> -> !torch.vtensor<[1,?,256],f32>
    torch.bind_symbolic_shape %129, [%63], affine_map<()[s0] -> (1, s0 * 32, 256)> : !torch.vtensor<[1,?,256],f32>
    %int5_84 = torch.constant.int 5
    %130 = torch.prims.convert_element_type %128, %int5_84 : !torch.vtensor<[1,?,256],f32>, !torch.int -> !torch.vtensor<[1,?,256],f16>
    torch.bind_symbolic_shape %130, [%63], affine_map<()[s0] -> (1, s0 * 32, 256)> : !torch.vtensor<[1,?,256],f16>
    %int5_85 = torch.constant.int 5
    %131 = torch.prims.convert_element_type %129, %int5_85 : !torch.vtensor<[1,?,256],f32>, !torch.int -> !torch.vtensor<[1,?,256],f16>
    torch.bind_symbolic_shape %131, [%63], affine_map<()[s0] -> (1, s0 * 32, 256)> : !torch.vtensor<[1,?,256],f16>
    %132 = torch.aten.mul.Tensor %2, %130 : !torch.vtensor<[256],f32>, !torch.vtensor<[1,?,256],f16> -> !torch.vtensor<[1,?,256],f32>
    torch.bind_symbolic_shape %132, [%63], affine_map<()[s0] -> (1, s0 * 32, 256)> : !torch.vtensor<[1,?,256],f32>
    %133 = torch.aten.mul.Tensor %3, %131 : !torch.vtensor<[256],f32>, !torch.vtensor<[1,?,256],f16> -> !torch.vtensor<[1,?,256],f32>
    torch.bind_symbolic_shape %133, [%63], affine_map<()[s0] -> (1, s0 * 32, 256)> : !torch.vtensor<[1,?,256],f32>
    %int5_86 = torch.constant.int 5
    %134 = torch.prims.convert_element_type %132, %int5_86 : !torch.vtensor<[1,?,256],f32>, !torch.int -> !torch.vtensor<[1,?,256],f16>
    torch.bind_symbolic_shape %134, [%63], affine_map<()[s0] -> (1, s0 * 32, 256)> : !torch.vtensor<[1,?,256],f16>
    %int5_87 = torch.constant.int 5
    %135 = torch.prims.convert_element_type %133, %int5_87 : !torch.vtensor<[1,?,256],f32>, !torch.int -> !torch.vtensor<[1,?,256],f16>
    torch.bind_symbolic_shape %135, [%63], affine_map<()[s0] -> (1, s0 * 32, 256)> : !torch.vtensor<[1,?,256],f16>
    %int1_88 = torch.constant.int 1
    %int0_89 = torch.constant.int 0
    %136 = torch.prim.ListConstruct %int1_88, %int0_89 : (!torch.int, !torch.int) -> !torch.list<int>
    %137 = torch.aten.permute %4, %136 : !torch.vtensor<[128,256],f32>, !torch.list<int> -> !torch.vtensor<[256,128],f32>
    %int1_90 = torch.constant.int 1
    %int0_91 = torch.constant.int 0
    %138 = torch.prim.ListConstruct %int1_90, %int0_91 : (!torch.int, !torch.int) -> !torch.list<int>
    %139 = torch.aten.permute %5, %138 : !torch.vtensor<[128,256],f32>, !torch.list<int> -> !torch.vtensor<[256,128],f32>
    %int5_92 = torch.constant.int 5
    %140 = torch.prims.convert_element_type %137, %int5_92 : !torch.vtensor<[256,128],f32>, !torch.int -> !torch.vtensor<[256,128],f16>
    %int256 = torch.constant.int 256
    %141 = torch.prim.ListConstruct %67, %int256 : (!torch.int, !torch.int) -> !torch.list<int>
    %142 = torch.aten.view %134, %141 : !torch.vtensor<[1,?,256],f16>, !torch.list<int> -> !torch.vtensor<[?,256],f16>
    torch.bind_symbolic_shape %142, [%63], affine_map<()[s0] -> (s0 * 32, 256)> : !torch.vtensor<[?,256],f16>
    %143 = torch.aten.mm %142, %140 : !torch.vtensor<[?,256],f16>, !torch.vtensor<[256,128],f16> -> !torch.vtensor<[?,128],f16>
    torch.bind_symbolic_shape %143, [%63], affine_map<()[s0] -> (s0 * 32, 128)> : !torch.vtensor<[?,128],f16>
    %int1_93 = torch.constant.int 1
    %int128_94 = torch.constant.int 128
    %144 = torch.prim.ListConstruct %int1_93, %67, %int128_94 : (!torch.int, !torch.int, !torch.int) -> !torch.list<int>
    %145 = torch.aten.view %143, %144 : !torch.vtensor<[?,128],f16>, !torch.list<int> -> !torch.vtensor<[1,?,128],f16>
    torch.bind_symbolic_shape %145, [%63], affine_map<()[s0] -> (1, s0 * 32, 128)> : !torch.vtensor<[1,?,128],f16>
    %int5_95 = torch.constant.int 5
    %146 = torch.prims.convert_element_type %139, %int5_95 : !torch.vtensor<[256,128],f32>, !torch.int -> !torch.vtensor<[256,128],f16>
    %int256_96 = torch.constant.int 256
    %147 = torch.prim.ListConstruct %67, %int256_96 : (!torch.int, !torch.int) -> !torch.list<int>
    %148 = torch.aten.view %135, %147 : !torch.vtensor<[1,?,256],f16>, !torch.list<int> -> !torch.vtensor<[?,256],f16>
    torch.bind_symbolic_shape %148, [%63], affine_map<()[s0] -> (s0 * 32, 256)> : !torch.vtensor<[?,256],f16>
    %149 = torch.aten.mm %148, %146 : !torch.vtensor<[?,256],f16>, !torch.vtensor<[256,128],f16> -> !torch.vtensor<[?,128],f16>
    torch.bind_symbolic_shape %149, [%63], affine_map<()[s0] -> (s0 * 32, 128)> : !torch.vtensor<[?,128],f16>
    %int1_97 = torch.constant.int 1
    %int128_98 = torch.constant.int 128
    %150 = torch.prim.ListConstruct %int1_97, %67, %int128_98 : (!torch.int, !torch.int, !torch.int) -> !torch.list<int>
    %151 = torch.aten.view %149, %150 : !torch.vtensor<[?,128],f16>, !torch.list<int> -> !torch.vtensor<[1,?,128],f16>
    torch.bind_symbolic_shape %151, [%63], affine_map<()[s0] -> (1, s0 * 32, 128)> : !torch.vtensor<[1,?,128],f16>
    %int1_99 = torch.constant.int 1
    %int0_100 = torch.constant.int 0
    %152 = torch.prim.ListConstruct %int1_99, %int0_100 : (!torch.int, !torch.int) -> !torch.list<int>
    %153 = torch.aten.permute %6, %152 : !torch.vtensor<[64,256],f32>, !torch.list<int> -> !torch.vtensor<[256,64],f32>
    %int1_101 = torch.constant.int 1
    %int0_102 = torch.constant.int 0
    %154 = torch.prim.ListConstruct %int1_101, %int0_102 : (!torch.int, !torch.int) -> !torch.list<int>
    %155 = torch.aten.permute %7, %154 : !torch.vtensor<[64,256],f32>, !torch.list<int> -> !torch.vtensor<[256,64],f32>
    %int5_103 = torch.constant.int 5
    %156 = torch.prims.convert_element_type %153, %int5_103 : !torch.vtensor<[256,64],f32>, !torch.int -> !torch.vtensor<[256,64],f16>
    %int256_104 = torch.constant.int 256
    %157 = torch.prim.ListConstruct %67, %int256_104 : (!torch.int, !torch.int) -> !torch.list<int>
    %158 = torch.aten.view %134, %157 : !torch.vtensor<[1,?,256],f16>, !torch.list<int> -> !torch.vtensor<[?,256],f16>
    torch.bind_symbolic_shape %158, [%63], affine_map<()[s0] -> (s0 * 32, 256)> : !torch.vtensor<[?,256],f16>
    %159 = torch.aten.mm %158, %156 : !torch.vtensor<[?,256],f16>, !torch.vtensor<[256,64],f16> -> !torch.vtensor<[?,64],f16>
    torch.bind_symbolic_shape %159, [%63], affine_map<()[s0] -> (s0 * 32, 64)> : !torch.vtensor<[?,64],f16>
    %int1_105 = torch.constant.int 1
    %int64 = torch.constant.int 64
    %160 = torch.prim.ListConstruct %int1_105, %67, %int64 : (!torch.int, !torch.int, !torch.int) -> !torch.list<int>
    %161 = torch.aten.view %159, %160 : !torch.vtensor<[?,64],f16>, !torch.list<int> -> !torch.vtensor<[1,?,64],f16>
    torch.bind_symbolic_shape %161, [%63], affine_map<()[s0] -> (1, s0 * 32, 64)> : !torch.vtensor<[1,?,64],f16>
    %int5_106 = torch.constant.int 5
    %162 = torch.prims.convert_element_type %155, %int5_106 : !torch.vtensor<[256,64],f32>, !torch.int -> !torch.vtensor<[256,64],f16>
    %int256_107 = torch.constant.int 256
    %163 = torch.prim.ListConstruct %67, %int256_107 : (!torch.int, !torch.int) -> !torch.list<int>
    %164 = torch.aten.view %135, %163 : !torch.vtensor<[1,?,256],f16>, !torch.list<int> -> !torch.vtensor<[?,256],f16>
    torch.bind_symbolic_shape %164, [%63], affine_map<()[s0] -> (s0 * 32, 256)> : !torch.vtensor<[?,256],f16>
    %165 = torch.aten.mm %164, %162 : !torch.vtensor<[?,256],f16>, !torch.vtensor<[256,64],f16> -> !torch.vtensor<[?,64],f16>
    torch.bind_symbolic_shape %165, [%63], affine_map<()[s0] -> (s0 * 32, 64)> : !torch.vtensor<[?,64],f16>
    %int1_108 = torch.constant.int 1
    %int64_109 = torch.constant.int 64
    %166 = torch.prim.ListConstruct %int1_108, %67, %int64_109 : (!torch.int, !torch.int, !torch.int) -> !torch.list<int>
    %167 = torch.aten.view %165, %166 : !torch.vtensor<[?,64],f16>, !torch.list<int> -> !torch.vtensor<[1,?,64],f16>
    torch.bind_symbolic_shape %167, [%63], affine_map<()[s0] -> (1, s0 * 32, 64)> : !torch.vtensor<[1,?,64],f16>
    %int1_110 = torch.constant.int 1
    %int0_111 = torch.constant.int 0
    %168 = torch.prim.ListConstruct %int1_110, %int0_111 : (!torch.int, !torch.int) -> !torch.list<int>
    %169 = torch.aten.permute %8, %168 : !torch.vtensor<[64,256],f32>, !torch.list<int> -> !torch.vtensor<[256,64],f32>
    %int1_112 = torch.constant.int 1
    %int0_113 = torch.constant.int 0
    %170 = torch.prim.ListConstruct %int1_112, %int0_113 : (!torch.int, !torch.int) -> !torch.list<int>
    %171 = torch.aten.permute %9, %170 : !torch.vtensor<[64,256],f32>, !torch.list<int> -> !torch.vtensor<[256,64],f32>
    %int5_114 = torch.constant.int 5
    %172 = torch.prims.convert_element_type %169, %int5_114 : !torch.vtensor<[256,64],f32>, !torch.int -> !torch.vtensor<[256,64],f16>
    %int256_115 = torch.constant.int 256
    %173 = torch.prim.ListConstruct %67, %int256_115 : (!torch.int, !torch.int) -> !torch.list<int>
    %174 = torch.aten.view %134, %173 : !torch.vtensor<[1,?,256],f16>, !torch.list<int> -> !torch.vtensor<[?,256],f16>
    torch.bind_symbolic_shape %174, [%63], affine_map<()[s0] -> (s0 * 32, 256)> : !torch.vtensor<[?,256],f16>
    %175 = torch.aten.mm %174, %172 : !torch.vtensor<[?,256],f16>, !torch.vtensor<[256,64],f16> -> !torch.vtensor<[?,64],f16>
    torch.bind_symbolic_shape %175, [%63], affine_map<()[s0] -> (s0 * 32, 64)> : !torch.vtensor<[?,64],f16>
    %int1_116 = torch.constant.int 1
    %int64_117 = torch.constant.int 64
    %176 = torch.prim.ListConstruct %int1_116, %67, %int64_117 : (!torch.int, !torch.int, !torch.int) -> !torch.list<int>
    %177 = torch.aten.view %175, %176 : !torch.vtensor<[?,64],f16>, !torch.list<int> -> !torch.vtensor<[1,?,64],f16>
    torch.bind_symbolic_shape %177, [%63], affine_map<()[s0] -> (1, s0 * 32, 64)> : !torch.vtensor<[1,?,64],f16>
    %int5_118 = torch.constant.int 5
    %178 = torch.prims.convert_element_type %171, %int5_118 : !torch.vtensor<[256,64],f32>, !torch.int -> !torch.vtensor<[256,64],f16>
    %int256_119 = torch.constant.int 256
    %179 = torch.prim.ListConstruct %67, %int256_119 : (!torch.int, !torch.int) -> !torch.list<int>
    %180 = torch.aten.view %135, %179 : !torch.vtensor<[1,?,256],f16>, !torch.list<int> -> !torch.vtensor<[?,256],f16>
    torch.bind_symbolic_shape %180, [%63], affine_map<()[s0] -> (s0 * 32, 256)> : !torch.vtensor<[?,256],f16>
    %181 = torch.aten.mm %180, %178 : !torch.vtensor<[?,256],f16>, !torch.vtensor<[256,64],f16> -> !torch.vtensor<[?,64],f16>
    torch.bind_symbolic_shape %181, [%63], affine_map<()[s0] -> (s0 * 32, 64)> : !torch.vtensor<[?,64],f16>
    %int1_120 = torch.constant.int 1
    %int64_121 = torch.constant.int 64
    %182 = torch.prim.ListConstruct %int1_120, %67, %int64_121 : (!torch.int, !torch.int, !torch.int) -> !torch.list<int>
    %183 = torch.aten.view %181, %182 : !torch.vtensor<[?,64],f16>, !torch.list<int> -> !torch.vtensor<[1,?,64],f16>
    torch.bind_symbolic_shape %183, [%63], affine_map<()[s0] -> (1, s0 * 32, 64)> : !torch.vtensor<[1,?,64],f16>
    %int1_122 = torch.constant.int 1
    %int4 = torch.constant.int 4
    %int32 = torch.constant.int 32
    %184 = torch.prim.ListConstruct %int1_122, %67, %int4, %int32 : (!torch.int, !torch.int, !torch.int, !torch.int) -> !torch.list<int>
    %185 = torch.aten.view %145, %184 : !torch.vtensor<[1,?,128],f16>, !torch.list<int> -> !torch.vtensor<[1,?,4,32],f16>
    torch.bind_symbolic_shape %185, [%63], affine_map<()[s0] -> (1, s0 * 32, 4, 32)> : !torch.vtensor<[1,?,4,32],f16>
    %int1_123 = torch.constant.int 1
    %int4_124 = torch.constant.int 4
    %int32_125 = torch.constant.int 32
    %186 = torch.prim.ListConstruct %int1_123, %67, %int4_124, %int32_125 : (!torch.int, !torch.int, !torch.int, !torch.int) -> !torch.list<int>
    %187 = torch.aten.view %151, %186 : !torch.vtensor<[1,?,128],f16>, !torch.list<int> -> !torch.vtensor<[1,?,4,32],f16>
    torch.bind_symbolic_shape %187, [%63], affine_map<()[s0] -> (1, s0 * 32, 4, 32)> : !torch.vtensor<[1,?,4,32],f16>
    %int1_126 = torch.constant.int 1
    %int2_127 = torch.constant.int 2
    %int32_128 = torch.constant.int 32
    %188 = torch.prim.ListConstruct %int1_126, %67, %int2_127, %int32_128 : (!torch.int, !torch.int, !torch.int, !torch.int) -> !torch.list<int>
    %189 = torch.aten.view %161, %188 : !torch.vtensor<[1,?,64],f16>, !torch.list<int> -> !torch.vtensor<[1,?,2,32],f16>
    torch.bind_symbolic_shape %189, [%63], affine_map<()[s0] -> (1, s0 * 32, 2, 32)> : !torch.vtensor<[1,?,2,32],f16>
    %int1_129 = torch.constant.int 1
    %int2_130 = torch.constant.int 2
    %int32_131 = torch.constant.int 32
    %190 = torch.prim.ListConstruct %int1_129, %67, %int2_130, %int32_131 : (!torch.int, !torch.int, !torch.int, !torch.int) -> !torch.list<int>
    %191 = torch.aten.view %167, %190 : !torch.vtensor<[1,?,64],f16>, !torch.list<int> -> !torch.vtensor<[1,?,2,32],f16>
    torch.bind_symbolic_shape %191, [%63], affine_map<()[s0] -> (1, s0 * 32, 2, 32)> : !torch.vtensor<[1,?,2,32],f16>
    %int1_132 = torch.constant.int 1
    %int2_133 = torch.constant.int 2
    %int32_134 = torch.constant.int 32
    %192 = torch.prim.ListConstruct %int1_132, %67, %int2_133, %int32_134 : (!torch.int, !torch.int, !torch.int, !torch.int) -> !torch.list<int>
    %193 = torch.aten.view %177, %192 : !torch.vtensor<[1,?,64],f16>, !torch.list<int> -> !torch.vtensor<[1,?,2,32],f16>
    torch.bind_symbolic_shape %193, [%63], affine_map<()[s0] -> (1, s0 * 32, 2, 32)> : !torch.vtensor<[1,?,2,32],f16>
    %int1_135 = torch.constant.int 1
    %int2_136 = torch.constant.int 2
    %int32_137 = torch.constant.int 32
    %194 = torch.prim.ListConstruct %int1_135, %67, %int2_136, %int32_137 : (!torch.int, !torch.int, !torch.int, !torch.int) -> !torch.list<int>
    %195 = torch.aten.view %183, %194 : !torch.vtensor<[1,?,64],f16>, !torch.list<int> -> !torch.vtensor<[1,?,2,32],f16>
    torch.bind_symbolic_shape %195, [%63], affine_map<()[s0] -> (1, s0 * 32, 2, 32)> : !torch.vtensor<[1,?,2,32],f16>
    %int128_138 = torch.constant.int 128
    %none_139 = torch.constant.none
    %none_140 = torch.constant.none
    %cpu_141 = torch.constant.device "cpu"
    %false_142 = torch.constant.bool false
    %196 = torch.aten.arange %int128_138, %none_139, %none_140, %cpu_141, %false_142 : !torch.int, !torch.none, !torch.none, !torch.Device, !torch.bool -> !torch.vtensor<[128],si64>
    %int0_143 = torch.constant.int 0
    %int32_144 = torch.constant.int 32
    %none_145 = torch.constant.none
    %none_146 = torch.constant.none
    %cpu_147 = torch.constant.device "cpu"
    %false_148 = torch.constant.bool false
    %197 = torch.aten.arange.start %int0_143, %int32_144, %none_145, %none_146, %cpu_147, %false_148 : !torch.int, !torch.int, !torch.none, !torch.none, !torch.Device, !torch.bool -> !torch.vtensor<[32],si64>
    %int2_149 = torch.constant.int 2
    %198 = torch.aten.floor_divide.Scalar %197, %int2_149 : !torch.vtensor<[32],si64>, !torch.int -> !torch.vtensor<[32],si64>
    %int6_150 = torch.constant.int 6
    %199 = torch.prims.convert_element_type %198, %int6_150 : !torch.vtensor<[32],si64>, !torch.int -> !torch.vtensor<[32],f32>
    %int32_151 = torch.constant.int 32
    %200 = torch.aten.div.Scalar %199, %int32_151 : !torch.vtensor<[32],f32>, !torch.int -> !torch.vtensor<[32],f32>
    %float2.000000e00 = torch.constant.float 2.000000e+00
    %201 = torch.aten.mul.Scalar %200, %float2.000000e00 : !torch.vtensor<[32],f32>, !torch.float -> !torch.vtensor<[32],f32>
    %float5.000000e05 = torch.constant.float 5.000000e+05
    %202 = torch.aten.pow.Scalar %float5.000000e05, %201 : !torch.float, !torch.vtensor<[32],f32> -> !torch.vtensor<[32],f32>
    %203 = torch.aten.reciprocal %202 : !torch.vtensor<[32],f32> -> !torch.vtensor<[32],f32>
    %float1.000000e00 = torch.constant.float 1.000000e+00
    %204 = torch.aten.mul.Scalar %203, %float1.000000e00 : !torch.vtensor<[32],f32>, !torch.float -> !torch.vtensor<[32],f32>
    %int1_152 = torch.constant.int 1
    %205 = torch.aten.unsqueeze %196, %int1_152 : !torch.vtensor<[128],si64>, !torch.int -> !torch.vtensor<[128,1],si64>
    %int0_153 = torch.constant.int 0
    %206 = torch.aten.unsqueeze %204, %int0_153 : !torch.vtensor<[32],f32>, !torch.int -> !torch.vtensor<[1,32],f32>
    %207 = torch.aten.mul.Tensor %205, %206 : !torch.vtensor<[128,1],si64>, !torch.vtensor<[1,32],f32> -> !torch.vtensor<[128,32],f32>
    %int6_154 = torch.constant.int 6
    %208 = torch.prims.convert_element_type %207, %int6_154 : !torch.vtensor<[128,32],f32>, !torch.int -> !torch.vtensor<[128,32],f32>
    %209 = torch_c.to_builtin_tensor %208 : !torch.vtensor<[128,32],f32> -> tensor<128x32xf32>
    %210 = flow.tensor.transfer %209 : tensor<128x32xf32> to #hal.device.promise<@__device_0>
    %211 = torch_c.from_builtin_tensor %210 : tensor<128x32xf32> -> !torch.vtensor<[128,32],f32>
    %212 = torch_c.to_builtin_tensor %208 : !torch.vtensor<[128,32],f32> -> tensor<128x32xf32>
    %213 = flow.tensor.transfer %212 : tensor<128x32xf32> to #hal.device.promise<@__device_1>
    %214 = torch_c.from_builtin_tensor %213 : tensor<128x32xf32> -> !torch.vtensor<[128,32],f32>
    %int0_155 = torch.constant.int 0
    %int0_156 = torch.constant.int 0
    %int1_157 = torch.constant.int 1
    %215 = torch.aten.slice.Tensor %211, %int0_155, %int0_156, %67, %int1_157 : !torch.vtensor<[128,32],f32>, !torch.int, !torch.int, !torch.int, !torch.int -> !torch.vtensor<[?,32],f32>
    torch.bind_symbolic_shape %215, [%63], affine_map<()[s0] -> (s0 * 32, 32)> : !torch.vtensor<[?,32],f32>
    %int1_158 = torch.constant.int 1
    %int0_159 = torch.constant.int 0
    %int9223372036854775807_160 = torch.constant.int 9223372036854775807
    %int1_161 = torch.constant.int 1
    %216 = torch.aten.slice.Tensor %215, %int1_158, %int0_159, %int9223372036854775807_160, %int1_161 : !torch.vtensor<[?,32],f32>, !torch.int, !torch.int, !torch.int, !torch.int -> !torch.vtensor<[?,32],f32>
    torch.bind_symbolic_shape %216, [%63], affine_map<()[s0] -> (s0 * 32, 32)> : !torch.vtensor<[?,32],f32>
    %int1_162 = torch.constant.int 1
    %int0_163 = torch.constant.int 0
    %int9223372036854775807_164 = torch.constant.int 9223372036854775807
    %int1_165 = torch.constant.int 1
    %217 = torch.aten.slice.Tensor %216, %int1_162, %int0_163, %int9223372036854775807_164, %int1_165 : !torch.vtensor<[?,32],f32>, !torch.int, !torch.int, !torch.int, !torch.int -> !torch.vtensor<[?,32],f32>
    torch.bind_symbolic_shape %217, [%63], affine_map<()[s0] -> (s0 * 32, 32)> : !torch.vtensor<[?,32],f32>
    %int0_166 = torch.constant.int 0
    %218 = torch.aten.unsqueeze %217, %int0_166 : !torch.vtensor<[?,32],f32>, !torch.int -> !torch.vtensor<[1,?,32],f32>
    torch.bind_symbolic_shape %218, [%63], affine_map<()[s0] -> (1, s0 * 32, 32)> : !torch.vtensor<[1,?,32],f32>
    %int1_167 = torch.constant.int 1
    %int0_168 = torch.constant.int 0
    %int9223372036854775807_169 = torch.constant.int 9223372036854775807
    %int1_170 = torch.constant.int 1
    %219 = torch.aten.slice.Tensor %218, %int1_167, %int0_168, %int9223372036854775807_169, %int1_170 : !torch.vtensor<[1,?,32],f32>, !torch.int, !torch.int, !torch.int, !torch.int -> !torch.vtensor<[1,?,32],f32>
    torch.bind_symbolic_shape %219, [%63], affine_map<()[s0] -> (1, s0 * 32, 32)> : !torch.vtensor<[1,?,32],f32>
    %int2_171 = torch.constant.int 2
    %int0_172 = torch.constant.int 0
    %int9223372036854775807_173 = torch.constant.int 9223372036854775807
    %int1_174 = torch.constant.int 1
    %220 = torch.aten.slice.Tensor %219, %int2_171, %int0_172, %int9223372036854775807_173, %int1_174 : !torch.vtensor<[1,?,32],f32>, !torch.int, !torch.int, !torch.int, !torch.int -> !torch.vtensor<[1,?,32],f32>
    torch.bind_symbolic_shape %220, [%63], affine_map<()[s0] -> (1, s0 * 32, 32)> : !torch.vtensor<[1,?,32],f32>
    %int1_175 = torch.constant.int 1
    %int1_176 = torch.constant.int 1
    %int1_177 = torch.constant.int 1
    %221 = torch.prim.ListConstruct %int1_175, %int1_176, %int1_177 : (!torch.int, !torch.int, !torch.int) -> !torch.list<int>
    %222 = torch.aten.repeat %220, %221 : !torch.vtensor<[1,?,32],f32>, !torch.list<int> -> !torch.vtensor<[1,?,32],f32>
    torch.bind_symbolic_shape %222, [%63], affine_map<()[s0] -> (1, s0 * 32, 32)> : !torch.vtensor<[1,?,32],f32>
    %int6_178 = torch.constant.int 6
    %223 = torch.prims.convert_element_type %185, %int6_178 : !torch.vtensor<[1,?,4,32],f16>, !torch.int -> !torch.vtensor<[1,?,4,32],f32>
    torch.bind_symbolic_shape %223, [%63], affine_map<()[s0] -> (1, s0 * 32, 4, 32)> : !torch.vtensor<[1,?,4,32],f32>
    %224 = torch_c.to_builtin_tensor %223 : !torch.vtensor<[1,?,4,32],f32> -> tensor<1x?x4x32xf32>
    %225 = torch_c.to_builtin_tensor %222 : !torch.vtensor<[1,?,32],f32> -> tensor<1x?x32xf32>
    %226 = util.call @sharktank_rotary_embedding_1_D_4_32_f32(%224, %225) : (tensor<1x?x4x32xf32>, tensor<1x?x32xf32>) -> tensor<1x?x4x32xf32>
    %227 = torch_c.from_builtin_tensor %226 : tensor<1x?x4x32xf32> -> !torch.vtensor<[1,?,4,32],f32>
    torch.bind_symbolic_shape %227, [%63], affine_map<()[s0] -> (1, s0 * 32, 4, 32)> : !torch.vtensor<[1,?,4,32],f32>
    %int5_179 = torch.constant.int 5
    %228 = torch.prims.convert_element_type %227, %int5_179 : !torch.vtensor<[1,?,4,32],f32>, !torch.int -> !torch.vtensor<[1,?,4,32],f16>
    torch.bind_symbolic_shape %228, [%63], affine_map<()[s0] -> (1, s0 * 32, 4, 32)> : !torch.vtensor<[1,?,4,32],f16>
    %int0_180 = torch.constant.int 0
    %int0_181 = torch.constant.int 0
    %int1_182 = torch.constant.int 1
    %229 = torch.aten.slice.Tensor %214, %int0_180, %int0_181, %67, %int1_182 : !torch.vtensor<[128,32],f32>, !torch.int, !torch.int, !torch.int, !torch.int -> !torch.vtensor<[?,32],f32>
    torch.bind_symbolic_shape %229, [%63], affine_map<()[s0] -> (s0 * 32, 32)> : !torch.vtensor<[?,32],f32>
    %int1_183 = torch.constant.int 1
    %int0_184 = torch.constant.int 0
    %int9223372036854775807_185 = torch.constant.int 9223372036854775807
    %int1_186 = torch.constant.int 1
    %230 = torch.aten.slice.Tensor %229, %int1_183, %int0_184, %int9223372036854775807_185, %int1_186 : !torch.vtensor<[?,32],f32>, !torch.int, !torch.int, !torch.int, !torch.int -> !torch.vtensor<[?,32],f32>
    torch.bind_symbolic_shape %230, [%63], affine_map<()[s0] -> (s0 * 32, 32)> : !torch.vtensor<[?,32],f32>
    %int1_187 = torch.constant.int 1
    %int0_188 = torch.constant.int 0
    %int9223372036854775807_189 = torch.constant.int 9223372036854775807
    %int1_190 = torch.constant.int 1
    %231 = torch.aten.slice.Tensor %230, %int1_187, %int0_188, %int9223372036854775807_189, %int1_190 : !torch.vtensor<[?,32],f32>, !torch.int, !torch.int, !torch.int, !torch.int -> !torch.vtensor<[?,32],f32>
    torch.bind_symbolic_shape %231, [%63], affine_map<()[s0] -> (s0 * 32, 32)> : !torch.vtensor<[?,32],f32>
    %int0_191 = torch.constant.int 0
    %232 = torch.aten.unsqueeze %231, %int0_191 : !torch.vtensor<[?,32],f32>, !torch.int -> !torch.vtensor<[1,?,32],f32>
    torch.bind_symbolic_shape %232, [%63], affine_map<()[s0] -> (1, s0 * 32, 32)> : !torch.vtensor<[1,?,32],f32>
    %int1_192 = torch.constant.int 1
    %int0_193 = torch.constant.int 0
    %int9223372036854775807_194 = torch.constant.int 9223372036854775807
    %int1_195 = torch.constant.int 1
    %233 = torch.aten.slice.Tensor %232, %int1_192, %int0_193, %int9223372036854775807_194, %int1_195 : !torch.vtensor<[1,?,32],f32>, !torch.int, !torch.int, !torch.int, !torch.int -> !torch.vtensor<[1,?,32],f32>
    torch.bind_symbolic_shape %233, [%63], affine_map<()[s0] -> (1, s0 * 32, 32)> : !torch.vtensor<[1,?,32],f32>
    %int2_196 = torch.constant.int 2
    %int0_197 = torch.constant.int 0
    %int9223372036854775807_198 = torch.constant.int 9223372036854775807
    %int1_199 = torch.constant.int 1
    %234 = torch.aten.slice.Tensor %233, %int2_196, %int0_197, %int9223372036854775807_198, %int1_199 : !torch.vtensor<[1,?,32],f32>, !torch.int, !torch.int, !torch.int, !torch.int -> !torch.vtensor<[1,?,32],f32>
    torch.bind_symbolic_shape %234, [%63], affine_map<()[s0] -> (1, s0 * 32, 32)> : !torch.vtensor<[1,?,32],f32>
    %int1_200 = torch.constant.int 1
    %int1_201 = torch.constant.int 1
    %int1_202 = torch.constant.int 1
    %235 = torch.prim.ListConstruct %int1_200, %int1_201, %int1_202 : (!torch.int, !torch.int, !torch.int) -> !torch.list<int>
    %236 = torch.aten.repeat %234, %235 : !torch.vtensor<[1,?,32],f32>, !torch.list<int> -> !torch.vtensor<[1,?,32],f32>
    torch.bind_symbolic_shape %236, [%63], affine_map<()[s0] -> (1, s0 * 32, 32)> : !torch.vtensor<[1,?,32],f32>
    %int6_203 = torch.constant.int 6
    %237 = torch.prims.convert_element_type %187, %int6_203 : !torch.vtensor<[1,?,4,32],f16>, !torch.int -> !torch.vtensor<[1,?,4,32],f32>
    torch.bind_symbolic_shape %237, [%63], affine_map<()[s0] -> (1, s0 * 32, 4, 32)> : !torch.vtensor<[1,?,4,32],f32>
    %238 = torch_c.to_builtin_tensor %237 : !torch.vtensor<[1,?,4,32],f32> -> tensor<1x?x4x32xf32>
    %239 = torch_c.to_builtin_tensor %236 : !torch.vtensor<[1,?,32],f32> -> tensor<1x?x32xf32>
    %240 = util.call @sharktank_rotary_embedding_1_D_4_32_f32(%238, %239) : (tensor<1x?x4x32xf32>, tensor<1x?x32xf32>) -> tensor<1x?x4x32xf32>
    %241 = torch_c.from_builtin_tensor %240 : tensor<1x?x4x32xf32> -> !torch.vtensor<[1,?,4,32],f32>
    torch.bind_symbolic_shape %241, [%63], affine_map<()[s0] -> (1, s0 * 32, 4, 32)> : !torch.vtensor<[1,?,4,32],f32>
    %int5_204 = torch.constant.int 5
    %242 = torch.prims.convert_element_type %241, %int5_204 : !torch.vtensor<[1,?,4,32],f32>, !torch.int -> !torch.vtensor<[1,?,4,32],f16>
    torch.bind_symbolic_shape %242, [%63], affine_map<()[s0] -> (1, s0 * 32, 4, 32)> : !torch.vtensor<[1,?,4,32],f16>
    %int128_205 = torch.constant.int 128
    %none_206 = torch.constant.none
    %none_207 = torch.constant.none
    %cpu_208 = torch.constant.device "cpu"
    %false_209 = torch.constant.bool false
    %243 = torch.aten.arange %int128_205, %none_206, %none_207, %cpu_208, %false_209 : !torch.int, !torch.none, !torch.none, !torch.Device, !torch.bool -> !torch.vtensor<[128],si64>
    %int0_210 = torch.constant.int 0
    %int32_211 = torch.constant.int 32
    %none_212 = torch.constant.none
    %none_213 = torch.constant.none
    %cpu_214 = torch.constant.device "cpu"
    %false_215 = torch.constant.bool false
    %244 = torch.aten.arange.start %int0_210, %int32_211, %none_212, %none_213, %cpu_214, %false_215 : !torch.int, !torch.int, !torch.none, !torch.none, !torch.Device, !torch.bool -> !torch.vtensor<[32],si64>
    %int2_216 = torch.constant.int 2
    %245 = torch.aten.floor_divide.Scalar %244, %int2_216 : !torch.vtensor<[32],si64>, !torch.int -> !torch.vtensor<[32],si64>
    %int6_217 = torch.constant.int 6
    %246 = torch.prims.convert_element_type %245, %int6_217 : !torch.vtensor<[32],si64>, !torch.int -> !torch.vtensor<[32],f32>
    %int32_218 = torch.constant.int 32
    %247 = torch.aten.div.Scalar %246, %int32_218 : !torch.vtensor<[32],f32>, !torch.int -> !torch.vtensor<[32],f32>
    %float2.000000e00_219 = torch.constant.float 2.000000e+00
    %248 = torch.aten.mul.Scalar %247, %float2.000000e00_219 : !torch.vtensor<[32],f32>, !torch.float -> !torch.vtensor<[32],f32>
    %float5.000000e05_220 = torch.constant.float 5.000000e+05
    %249 = torch.aten.pow.Scalar %float5.000000e05_220, %248 : !torch.float, !torch.vtensor<[32],f32> -> !torch.vtensor<[32],f32>
    %250 = torch.aten.reciprocal %249 : !torch.vtensor<[32],f32> -> !torch.vtensor<[32],f32>
    %float1.000000e00_221 = torch.constant.float 1.000000e+00
    %251 = torch.aten.mul.Scalar %250, %float1.000000e00_221 : !torch.vtensor<[32],f32>, !torch.float -> !torch.vtensor<[32],f32>
    %int1_222 = torch.constant.int 1
    %252 = torch.aten.unsqueeze %243, %int1_222 : !torch.vtensor<[128],si64>, !torch.int -> !torch.vtensor<[128,1],si64>
    %int0_223 = torch.constant.int 0
    %253 = torch.aten.unsqueeze %251, %int0_223 : !torch.vtensor<[32],f32>, !torch.int -> !torch.vtensor<[1,32],f32>
    %254 = torch.aten.mul.Tensor %252, %253 : !torch.vtensor<[128,1],si64>, !torch.vtensor<[1,32],f32> -> !torch.vtensor<[128,32],f32>
    %int6_224 = torch.constant.int 6
    %255 = torch.prims.convert_element_type %254, %int6_224 : !torch.vtensor<[128,32],f32>, !torch.int -> !torch.vtensor<[128,32],f32>
    %256 = torch_c.to_builtin_tensor %255 : !torch.vtensor<[128,32],f32> -> tensor<128x32xf32>
    %257 = flow.tensor.transfer %256 : tensor<128x32xf32> to #hal.device.promise<@__device_0>
    %258 = torch_c.from_builtin_tensor %257 : tensor<128x32xf32> -> !torch.vtensor<[128,32],f32>
    %259 = torch_c.to_builtin_tensor %255 : !torch.vtensor<[128,32],f32> -> tensor<128x32xf32>
    %260 = flow.tensor.transfer %259 : tensor<128x32xf32> to #hal.device.promise<@__device_1>
    %261 = torch_c.from_builtin_tensor %260 : tensor<128x32xf32> -> !torch.vtensor<[128,32],f32>
    %int0_225 = torch.constant.int 0
    %int0_226 = torch.constant.int 0
    %int1_227 = torch.constant.int 1
    %262 = torch.aten.slice.Tensor %258, %int0_225, %int0_226, %67, %int1_227 : !torch.vtensor<[128,32],f32>, !torch.int, !torch.int, !torch.int, !torch.int -> !torch.vtensor<[?,32],f32>
    torch.bind_symbolic_shape %262, [%63], affine_map<()[s0] -> (s0 * 32, 32)> : !torch.vtensor<[?,32],f32>
    %int1_228 = torch.constant.int 1
    %int0_229 = torch.constant.int 0
    %int9223372036854775807_230 = torch.constant.int 9223372036854775807
    %int1_231 = torch.constant.int 1
    %263 = torch.aten.slice.Tensor %262, %int1_228, %int0_229, %int9223372036854775807_230, %int1_231 : !torch.vtensor<[?,32],f32>, !torch.int, !torch.int, !torch.int, !torch.int -> !torch.vtensor<[?,32],f32>
    torch.bind_symbolic_shape %263, [%63], affine_map<()[s0] -> (s0 * 32, 32)> : !torch.vtensor<[?,32],f32>
    %int1_232 = torch.constant.int 1
    %int0_233 = torch.constant.int 0
    %int9223372036854775807_234 = torch.constant.int 9223372036854775807
    %int1_235 = torch.constant.int 1
    %264 = torch.aten.slice.Tensor %263, %int1_232, %int0_233, %int9223372036854775807_234, %int1_235 : !torch.vtensor<[?,32],f32>, !torch.int, !torch.int, !torch.int, !torch.int -> !torch.vtensor<[?,32],f32>
    torch.bind_symbolic_shape %264, [%63], affine_map<()[s0] -> (s0 * 32, 32)> : !torch.vtensor<[?,32],f32>
    %int0_236 = torch.constant.int 0
    %265 = torch.aten.unsqueeze %264, %int0_236 : !torch.vtensor<[?,32],f32>, !torch.int -> !torch.vtensor<[1,?,32],f32>
    torch.bind_symbolic_shape %265, [%63], affine_map<()[s0] -> (1, s0 * 32, 32)> : !torch.vtensor<[1,?,32],f32>
    %int1_237 = torch.constant.int 1
    %int0_238 = torch.constant.int 0
    %int9223372036854775807_239 = torch.constant.int 9223372036854775807
    %int1_240 = torch.constant.int 1
    %266 = torch.aten.slice.Tensor %265, %int1_237, %int0_238, %int9223372036854775807_239, %int1_240 : !torch.vtensor<[1,?,32],f32>, !torch.int, !torch.int, !torch.int, !torch.int -> !torch.vtensor<[1,?,32],f32>
    torch.bind_symbolic_shape %266, [%63], affine_map<()[s0] -> (1, s0 * 32, 32)> : !torch.vtensor<[1,?,32],f32>
    %int2_241 = torch.constant.int 2
    %int0_242 = torch.constant.int 0
    %int9223372036854775807_243 = torch.constant.int 9223372036854775807
    %int1_244 = torch.constant.int 1
    %267 = torch.aten.slice.Tensor %266, %int2_241, %int0_242, %int9223372036854775807_243, %int1_244 : !torch.vtensor<[1,?,32],f32>, !torch.int, !torch.int, !torch.int, !torch.int -> !torch.vtensor<[1,?,32],f32>
    torch.bind_symbolic_shape %267, [%63], affine_map<()[s0] -> (1, s0 * 32, 32)> : !torch.vtensor<[1,?,32],f32>
    %int1_245 = torch.constant.int 1
    %int1_246 = torch.constant.int 1
    %int1_247 = torch.constant.int 1
    %268 = torch.prim.ListConstruct %int1_245, %int1_246, %int1_247 : (!torch.int, !torch.int, !torch.int) -> !torch.list<int>
    %269 = torch.aten.repeat %267, %268 : !torch.vtensor<[1,?,32],f32>, !torch.list<int> -> !torch.vtensor<[1,?,32],f32>
    torch.bind_symbolic_shape %269, [%63], affine_map<()[s0] -> (1, s0 * 32, 32)> : !torch.vtensor<[1,?,32],f32>
    %int6_248 = torch.constant.int 6
    %270 = torch.prims.convert_element_type %189, %int6_248 : !torch.vtensor<[1,?,2,32],f16>, !torch.int -> !torch.vtensor<[1,?,2,32],f32>
    torch.bind_symbolic_shape %270, [%63], affine_map<()[s0] -> (1, s0 * 32, 2, 32)> : !torch.vtensor<[1,?,2,32],f32>
    %271 = torch_c.to_builtin_tensor %270 : !torch.vtensor<[1,?,2,32],f32> -> tensor<1x?x2x32xf32>
    %272 = torch_c.to_builtin_tensor %269 : !torch.vtensor<[1,?,32],f32> -> tensor<1x?x32xf32>
    %273 = util.call @sharktank_rotary_embedding_1_D_2_32_f32(%271, %272) : (tensor<1x?x2x32xf32>, tensor<1x?x32xf32>) -> tensor<1x?x2x32xf32>
    %274 = torch_c.from_builtin_tensor %273 : tensor<1x?x2x32xf32> -> !torch.vtensor<[1,?,2,32],f32>
    torch.bind_symbolic_shape %274, [%63], affine_map<()[s0] -> (1, s0 * 32, 2, 32)> : !torch.vtensor<[1,?,2,32],f32>
    %int5_249 = torch.constant.int 5
    %275 = torch.prims.convert_element_type %274, %int5_249 : !torch.vtensor<[1,?,2,32],f32>, !torch.int -> !torch.vtensor<[1,?,2,32],f16>
    torch.bind_symbolic_shape %275, [%63], affine_map<()[s0] -> (1, s0 * 32, 2, 32)> : !torch.vtensor<[1,?,2,32],f16>
    %int0_250 = torch.constant.int 0
    %int0_251 = torch.constant.int 0
    %int1_252 = torch.constant.int 1
    %276 = torch.aten.slice.Tensor %261, %int0_250, %int0_251, %67, %int1_252 : !torch.vtensor<[128,32],f32>, !torch.int, !torch.int, !torch.int, !torch.int -> !torch.vtensor<[?,32],f32>
    torch.bind_symbolic_shape %276, [%63], affine_map<()[s0] -> (s0 * 32, 32)> : !torch.vtensor<[?,32],f32>
    %int1_253 = torch.constant.int 1
    %int0_254 = torch.constant.int 0
    %int9223372036854775807_255 = torch.constant.int 9223372036854775807
    %int1_256 = torch.constant.int 1
    %277 = torch.aten.slice.Tensor %276, %int1_253, %int0_254, %int9223372036854775807_255, %int1_256 : !torch.vtensor<[?,32],f32>, !torch.int, !torch.int, !torch.int, !torch.int -> !torch.vtensor<[?,32],f32>
    torch.bind_symbolic_shape %277, [%63], affine_map<()[s0] -> (s0 * 32, 32)> : !torch.vtensor<[?,32],f32>
    %int1_257 = torch.constant.int 1
    %int0_258 = torch.constant.int 0
    %int9223372036854775807_259 = torch.constant.int 9223372036854775807
    %int1_260 = torch.constant.int 1
    %278 = torch.aten.slice.Tensor %277, %int1_257, %int0_258, %int9223372036854775807_259, %int1_260 : !torch.vtensor<[?,32],f32>, !torch.int, !torch.int, !torch.int, !torch.int -> !torch.vtensor<[?,32],f32>
    torch.bind_symbolic_shape %278, [%63], affine_map<()[s0] -> (s0 * 32, 32)> : !torch.vtensor<[?,32],f32>
    %int0_261 = torch.constant.int 0
    %279 = torch.aten.unsqueeze %278, %int0_261 : !torch.vtensor<[?,32],f32>, !torch.int -> !torch.vtensor<[1,?,32],f32>
    torch.bind_symbolic_shape %279, [%63], affine_map<()[s0] -> (1, s0 * 32, 32)> : !torch.vtensor<[1,?,32],f32>
    %int1_262 = torch.constant.int 1
    %int0_263 = torch.constant.int 0
    %int9223372036854775807_264 = torch.constant.int 9223372036854775807
    %int1_265 = torch.constant.int 1
    %280 = torch.aten.slice.Tensor %279, %int1_262, %int0_263, %int9223372036854775807_264, %int1_265 : !torch.vtensor<[1,?,32],f32>, !torch.int, !torch.int, !torch.int, !torch.int -> !torch.vtensor<[1,?,32],f32>
    torch.bind_symbolic_shape %280, [%63], affine_map<()[s0] -> (1, s0 * 32, 32)> : !torch.vtensor<[1,?,32],f32>
    %int2_266 = torch.constant.int 2
    %int0_267 = torch.constant.int 0
    %int9223372036854775807_268 = torch.constant.int 9223372036854775807
    %int1_269 = torch.constant.int 1
    %281 = torch.aten.slice.Tensor %280, %int2_266, %int0_267, %int9223372036854775807_268, %int1_269 : !torch.vtensor<[1,?,32],f32>, !torch.int, !torch.int, !torch.int, !torch.int -> !torch.vtensor<[1,?,32],f32>
    torch.bind_symbolic_shape %281, [%63], affine_map<()[s0] -> (1, s0 * 32, 32)> : !torch.vtensor<[1,?,32],f32>
    %int1_270 = torch.constant.int 1
    %int1_271 = torch.constant.int 1
    %int1_272 = torch.constant.int 1
    %282 = torch.prim.ListConstruct %int1_270, %int1_271, %int1_272 : (!torch.int, !torch.int, !torch.int) -> !torch.list<int>
    %283 = torch.aten.repeat %281, %282 : !torch.vtensor<[1,?,32],f32>, !torch.list<int> -> !torch.vtensor<[1,?,32],f32>
    torch.bind_symbolic_shape %283, [%63], affine_map<()[s0] -> (1, s0 * 32, 32)> : !torch.vtensor<[1,?,32],f32>
    %int6_273 = torch.constant.int 6
    %284 = torch.prims.convert_element_type %191, %int6_273 : !torch.vtensor<[1,?,2,32],f16>, !torch.int -> !torch.vtensor<[1,?,2,32],f32>
    torch.bind_symbolic_shape %284, [%63], affine_map<()[s0] -> (1, s0 * 32, 2, 32)> : !torch.vtensor<[1,?,2,32],f32>
    %285 = torch_c.to_builtin_tensor %284 : !torch.vtensor<[1,?,2,32],f32> -> tensor<1x?x2x32xf32>
    %286 = torch_c.to_builtin_tensor %283 : !torch.vtensor<[1,?,32],f32> -> tensor<1x?x32xf32>
    %287 = util.call @sharktank_rotary_embedding_1_D_2_32_f32(%285, %286) : (tensor<1x?x2x32xf32>, tensor<1x?x32xf32>) -> tensor<1x?x2x32xf32>
    %288 = torch_c.from_builtin_tensor %287 : tensor<1x?x2x32xf32> -> !torch.vtensor<[1,?,2,32],f32>
    torch.bind_symbolic_shape %288, [%63], affine_map<()[s0] -> (1, s0 * 32, 2, 32)> : !torch.vtensor<[1,?,2,32],f32>
    %int5_274 = torch.constant.int 5
    %289 = torch.prims.convert_element_type %288, %int5_274 : !torch.vtensor<[1,?,2,32],f32>, !torch.int -> !torch.vtensor<[1,?,2,32],f16>
    torch.bind_symbolic_shape %289, [%63], affine_map<()[s0] -> (1, s0 * 32, 2, 32)> : !torch.vtensor<[1,?,2,32],f16>
    %int3_275 = torch.constant.int 3
    %int2_276 = torch.constant.int 2
    %int32_277 = torch.constant.int 32
    %int2_278 = torch.constant.int 2
    %int32_279 = torch.constant.int 32
    %290 = torch.prim.ListConstruct %66, %int3_275, %int2_276, %int32_277, %int2_278, %int32_279 : (!torch.int, !torch.int, !torch.int, !torch.int, !torch.int, !torch.int) -> !torch.list<int>
    %291 = torch.aten.view %60, %290 : !torch.vtensor<[?,12288],f16>, !torch.list<int> -> !torch.vtensor<[?,3,2,32,2,32],f16>
    torch.bind_symbolic_shape %291, [%64], affine_map<()[s0] -> (s0, 3, 2, 32, 2, 32)> : !torch.vtensor<[?,3,2,32,2,32],f16>
    %int3_280 = torch.constant.int 3
    %int2_281 = torch.constant.int 2
    %int32_282 = torch.constant.int 32
    %int2_283 = torch.constant.int 2
    %int32_284 = torch.constant.int 32
    %292 = torch.prim.ListConstruct %66, %int3_280, %int2_281, %int32_282, %int2_283, %int32_284 : (!torch.int, !torch.int, !torch.int, !torch.int, !torch.int, !torch.int) -> !torch.list<int>
    %293 = torch.aten.view %61, %292 : !torch.vtensor<[?,12288],f16>, !torch.list<int> -> !torch.vtensor<[?,3,2,32,2,32],f16>
    torch.bind_symbolic_shape %293, [%64], affine_map<()[s0] -> (s0, 3, 2, 32, 2, 32)> : !torch.vtensor<[?,3,2,32,2,32],f16>
    %int3_285 = torch.constant.int 3
    %294 = torch.aten.mul.int %66, %int3_285 : !torch.int, !torch.int -> !torch.int
    %int2_286 = torch.constant.int 2
    %295 = torch.aten.mul.int %294, %int2_286 : !torch.int, !torch.int -> !torch.int
    %int32_287 = torch.constant.int 32
    %int2_288 = torch.constant.int 2
    %int32_289 = torch.constant.int 32
    %296 = torch.prim.ListConstruct %295, %int32_287, %int2_288, %int32_289 : (!torch.int, !torch.int, !torch.int, !torch.int) -> !torch.list<int>
    %297 = torch.aten.view %291, %296 : !torch.vtensor<[?,3,2,32,2,32],f16>, !torch.list<int> -> !torch.vtensor<[?,32,2,32],f16>
    torch.bind_symbolic_shape %297, [%64], affine_map<()[s0] -> (s0 * 6, 32, 2, 32)> : !torch.vtensor<[?,32,2,32],f16>
    %int32_290 = torch.constant.int 32
    %int2_291 = torch.constant.int 2
    %int32_292 = torch.constant.int 32
    %298 = torch.prim.ListConstruct %295, %int32_290, %int2_291, %int32_292 : (!torch.int, !torch.int, !torch.int, !torch.int) -> !torch.list<int>
    %299 = torch.aten.view %293, %298 : !torch.vtensor<[?,3,2,32,2,32],f16>, !torch.list<int> -> !torch.vtensor<[?,32,2,32],f16>
    torch.bind_symbolic_shape %299, [%64], affine_map<()[s0] -> (s0 * 6, 32, 2, 32)> : !torch.vtensor<[?,32,2,32],f16>
    %int6_293 = torch.constant.int 6
    %300 = torch.aten.mul.Scalar %108, %int6_293 : !torch.vtensor<[1,?],si64>, !torch.int -> !torch.vtensor<[1,?],si64>
    torch.bind_symbolic_shape %300, [%63], affine_map<()[s0] -> (1, s0)> : !torch.vtensor<[1,?],si64>
    %int6_294 = torch.constant.int 6
    %301 = torch.aten.mul.Scalar %111, %int6_294 : !torch.vtensor<[1,?],si64>, !torch.int -> !torch.vtensor<[1,?],si64>
    torch.bind_symbolic_shape %301, [%63], affine_map<()[s0] -> (1, s0)> : !torch.vtensor<[1,?],si64>
    %int0_295 = torch.constant.int 0
    %int1_296 = torch.constant.int 1
    %302 = torch.aten.add.Scalar %300, %int0_295, %int1_296 : !torch.vtensor<[1,?],si64>, !torch.int, !torch.int -> !torch.vtensor<[1,?],si64>
    torch.bind_symbolic_shape %302, [%63], affine_map<()[s0] -> (1, s0)> : !torch.vtensor<[1,?],si64>
    %int0_297 = torch.constant.int 0
    %int1_298 = torch.constant.int 1
    %303 = torch.aten.add.Scalar %301, %int0_297, %int1_298 : !torch.vtensor<[1,?],si64>, !torch.int, !torch.int -> !torch.vtensor<[1,?],si64>
    torch.bind_symbolic_shape %303, [%63], affine_map<()[s0] -> (1, s0)> : !torch.vtensor<[1,?],si64>
    %int1_299 = torch.constant.int 1
    %int32_300 = torch.constant.int 32
    %int2_301 = torch.constant.int 2
    %int32_302 = torch.constant.int 32
    %304 = torch.prim.ListConstruct %int1_299, %65, %int32_300, %int2_301, %int32_302 : (!torch.int, !torch.int, !torch.int, !torch.int, !torch.int) -> !torch.list<int>
    %305 = torch.aten.view %275, %304 : !torch.vtensor<[1,?,2,32],f16>, !torch.list<int> -> !torch.vtensor<[1,?,32,2,32],f16>
    torch.bind_symbolic_shape %305, [%63], affine_map<()[s0] -> (1, s0, 32, 2, 32)> : !torch.vtensor<[1,?,32,2,32],f16>
    %int1_303 = torch.constant.int 1
    %int32_304 = torch.constant.int 32
    %int2_305 = torch.constant.int 2
    %int32_306 = torch.constant.int 32
    %306 = torch.prim.ListConstruct %int1_303, %65, %int32_304, %int2_305, %int32_306 : (!torch.int, !torch.int, !torch.int, !torch.int, !torch.int) -> !torch.list<int>
    %307 = torch.aten.view %289, %306 : !torch.vtensor<[1,?,2,32],f16>, !torch.list<int> -> !torch.vtensor<[1,?,32,2,32],f16>
    torch.bind_symbolic_shape %307, [%63], affine_map<()[s0] -> (1, s0, 32, 2, 32)> : !torch.vtensor<[1,?,32,2,32],f16>
    %int32_307 = torch.constant.int 32
    %int2_308 = torch.constant.int 2
    %int32_309 = torch.constant.int 32
    %308 = torch.prim.ListConstruct %65, %int32_307, %int2_308, %int32_309 : (!torch.int, !torch.int, !torch.int, !torch.int) -> !torch.list<int>
    %309 = torch.aten.view %305, %308 : !torch.vtensor<[1,?,32,2,32],f16>, !torch.list<int> -> !torch.vtensor<[?,32,2,32],f16>
    torch.bind_symbolic_shape %309, [%63], affine_map<()[s0] -> (s0, 32, 2, 32)> : !torch.vtensor<[?,32,2,32],f16>
    %int32_310 = torch.constant.int 32
    %int2_311 = torch.constant.int 2
    %int32_312 = torch.constant.int 32
    %310 = torch.prim.ListConstruct %65, %int32_310, %int2_311, %int32_312 : (!torch.int, !torch.int, !torch.int, !torch.int) -> !torch.list<int>
    %311 = torch.aten.view %307, %310 : !torch.vtensor<[1,?,32,2,32],f16>, !torch.list<int> -> !torch.vtensor<[?,32,2,32],f16>
    torch.bind_symbolic_shape %311, [%63], affine_map<()[s0] -> (s0, 32, 2, 32)> : !torch.vtensor<[?,32,2,32],f16>
    %312 = torch.prim.ListConstruct %65 : (!torch.int) -> !torch.list<int>
    %313 = torch.aten.view %302, %312 : !torch.vtensor<[1,?],si64>, !torch.list<int> -> !torch.vtensor<[?],si64>
    torch.bind_symbolic_shape %313, [%63], affine_map<()[s0] -> (s0)> : !torch.vtensor<[?],si64>
    %314 = torch.prim.ListConstruct %65 : (!torch.int) -> !torch.list<int>
    %315 = torch.aten.view %303, %314 : !torch.vtensor<[1,?],si64>, !torch.list<int> -> !torch.vtensor<[?],si64>
    torch.bind_symbolic_shape %315, [%63], affine_map<()[s0] -> (s0)> : !torch.vtensor<[?],si64>
    %int5_313 = torch.constant.int 5
    %316 = torch.prims.convert_element_type %309, %int5_313 : !torch.vtensor<[?,32,2,32],f16>, !torch.int -> !torch.vtensor<[?,32,2,32],f16>
    torch.bind_symbolic_shape %316, [%63], affine_map<()[s0] -> (s0, 32, 2, 32)> : !torch.vtensor<[?,32,2,32],f16>
    %int5_314 = torch.constant.int 5
    %317 = torch.prims.convert_element_type %311, %int5_314 : !torch.vtensor<[?,32,2,32],f16>, !torch.int -> !torch.vtensor<[?,32,2,32],f16>
    torch.bind_symbolic_shape %317, [%63], affine_map<()[s0] -> (s0, 32, 2, 32)> : !torch.vtensor<[?,32,2,32],f16>
    %318 = torch.prim.ListConstruct %313 : (!torch.vtensor<[?],si64>) -> !torch.list<optional<vtensor>>
    %false_315 = torch.constant.bool false
    %319 = torch.aten.index_put %297, %318, %316, %false_315 : !torch.vtensor<[?,32,2,32],f16>, !torch.list<optional<vtensor>>, !torch.vtensor<[?,32,2,32],f16>, !torch.bool -> !torch.vtensor<[?,32,2,32],f16>
    torch.bind_symbolic_shape %319, [%64], affine_map<()[s0] -> (s0 * 6, 32, 2, 32)> : !torch.vtensor<[?,32,2,32],f16>
    %int3_316 = torch.constant.int 3
    %int2_317 = torch.constant.int 2
    %int32_318 = torch.constant.int 32
    %int2_319 = torch.constant.int 2
    %int32_320 = torch.constant.int 32
    %320 = torch.prim.ListConstruct %66, %int3_316, %int2_317, %int32_318, %int2_319, %int32_320 : (!torch.int, !torch.int, !torch.int, !torch.int, !torch.int, !torch.int) -> !torch.list<int>
    %321 = torch.aten.view %319, %320 : !torch.vtensor<[?,32,2,32],f16>, !torch.list<int> -> !torch.vtensor<[?,3,2,32,2,32],f16>
    torch.bind_symbolic_shape %321, [%64], affine_map<()[s0] -> (s0, 3, 2, 32, 2, 32)> : !torch.vtensor<[?,3,2,32,2,32],f16>
    %int12288 = torch.constant.int 12288
    %322 = torch.prim.ListConstruct %66, %int12288 : (!torch.int, !torch.int) -> !torch.list<int>
    %323 = torch.aten.view %321, %322 : !torch.vtensor<[?,3,2,32,2,32],f16>, !torch.list<int> -> !torch.vtensor<[?,12288],f16>
    torch.bind_symbolic_shape %323, [%64], affine_map<()[s0] -> (s0, 12288)> : !torch.vtensor<[?,12288],f16>
    %int3_321 = torch.constant.int 3
    %int2_322 = torch.constant.int 2
    %int32_323 = torch.constant.int 32
    %int2_324 = torch.constant.int 2
    %int32_325 = torch.constant.int 32
    %324 = torch.prim.ListConstruct %66, %int3_321, %int2_322, %int32_323, %int2_324, %int32_325 : (!torch.int, !torch.int, !torch.int, !torch.int, !torch.int, !torch.int) -> !torch.list<int>
    %325 = torch.aten.view %323, %324 : !torch.vtensor<[?,12288],f16>, !torch.list<int> -> !torch.vtensor<[?,3,2,32,2,32],f16>
    torch.bind_symbolic_shape %325, [%64], affine_map<()[s0] -> (s0, 3, 2, 32, 2, 32)> : !torch.vtensor<[?,3,2,32,2,32],f16>
    %int32_326 = torch.constant.int 32
    %int2_327 = torch.constant.int 2
    %int32_328 = torch.constant.int 32
    %326 = torch.prim.ListConstruct %295, %int32_326, %int2_327, %int32_328 : (!torch.int, !torch.int, !torch.int, !torch.int) -> !torch.list<int>
    %327 = torch.aten.view %325, %326 : !torch.vtensor<[?,3,2,32,2,32],f16>, !torch.list<int> -> !torch.vtensor<[?,32,2,32],f16>
    torch.bind_symbolic_shape %327, [%64], affine_map<()[s0] -> (s0 * 6, 32, 2, 32)> : !torch.vtensor<[?,32,2,32],f16>
    %328 = torch.prim.ListConstruct %315 : (!torch.vtensor<[?],si64>) -> !torch.list<optional<vtensor>>
    %false_329 = torch.constant.bool false
    %329 = torch.aten.index_put %299, %328, %317, %false_329 : !torch.vtensor<[?,32,2,32],f16>, !torch.list<optional<vtensor>>, !torch.vtensor<[?,32,2,32],f16>, !torch.bool -> !torch.vtensor<[?,32,2,32],f16>
    torch.bind_symbolic_shape %329, [%64], affine_map<()[s0] -> (s0 * 6, 32, 2, 32)> : !torch.vtensor<[?,32,2,32],f16>
    %int3_330 = torch.constant.int 3
    %int2_331 = torch.constant.int 2
    %int32_332 = torch.constant.int 32
    %int2_333 = torch.constant.int 2
    %int32_334 = torch.constant.int 32
    %330 = torch.prim.ListConstruct %66, %int3_330, %int2_331, %int32_332, %int2_333, %int32_334 : (!torch.int, !torch.int, !torch.int, !torch.int, !torch.int, !torch.int) -> !torch.list<int>
    %331 = torch.aten.view %329, %330 : !torch.vtensor<[?,32,2,32],f16>, !torch.list<int> -> !torch.vtensor<[?,3,2,32,2,32],f16>
    torch.bind_symbolic_shape %331, [%64], affine_map<()[s0] -> (s0, 3, 2, 32, 2, 32)> : !torch.vtensor<[?,3,2,32,2,32],f16>
    %int12288_335 = torch.constant.int 12288
    %332 = torch.prim.ListConstruct %66, %int12288_335 : (!torch.int, !torch.int) -> !torch.list<int>
    %333 = torch.aten.view %331, %332 : !torch.vtensor<[?,3,2,32,2,32],f16>, !torch.list<int> -> !torch.vtensor<[?,12288],f16>
    torch.bind_symbolic_shape %333, [%64], affine_map<()[s0] -> (s0, 12288)> : !torch.vtensor<[?,12288],f16>
    %int3_336 = torch.constant.int 3
    %int2_337 = torch.constant.int 2
    %int32_338 = torch.constant.int 32
    %int2_339 = torch.constant.int 2
    %int32_340 = torch.constant.int 32
    %334 = torch.prim.ListConstruct %66, %int3_336, %int2_337, %int32_338, %int2_339, %int32_340 : (!torch.int, !torch.int, !torch.int, !torch.int, !torch.int, !torch.int) -> !torch.list<int>
    %335 = torch.aten.view %333, %334 : !torch.vtensor<[?,12288],f16>, !torch.list<int> -> !torch.vtensor<[?,3,2,32,2,32],f16>
    torch.bind_symbolic_shape %335, [%64], affine_map<()[s0] -> (s0, 3, 2, 32, 2, 32)> : !torch.vtensor<[?,3,2,32,2,32],f16>
    %int32_341 = torch.constant.int 32
    %int2_342 = torch.constant.int 2
    %int32_343 = torch.constant.int 32
    %336 = torch.prim.ListConstruct %295, %int32_341, %int2_342, %int32_343 : (!torch.int, !torch.int, !torch.int, !torch.int) -> !torch.list<int>
    %337 = torch.aten.view %335, %336 : !torch.vtensor<[?,3,2,32,2,32],f16>, !torch.list<int> -> !torch.vtensor<[?,32,2,32],f16>
    torch.bind_symbolic_shape %337, [%64], affine_map<()[s0] -> (s0 * 6, 32, 2, 32)> : !torch.vtensor<[?,32,2,32],f16>
    %int1_344 = torch.constant.int 1
    %int32_345 = torch.constant.int 32
    %int2_346 = torch.constant.int 2
    %int32_347 = torch.constant.int 32
    %338 = torch.prim.ListConstruct %int1_344, %65, %int32_345, %int2_346, %int32_347 : (!torch.int, !torch.int, !torch.int, !torch.int, !torch.int) -> !torch.list<int>
    %339 = torch.aten.view %193, %338 : !torch.vtensor<[1,?,2,32],f16>, !torch.list<int> -> !torch.vtensor<[1,?,32,2,32],f16>
    torch.bind_symbolic_shape %339, [%63], affine_map<()[s0] -> (1, s0, 32, 2, 32)> : !torch.vtensor<[1,?,32,2,32],f16>
    %int1_348 = torch.constant.int 1
    %int32_349 = torch.constant.int 32
    %int2_350 = torch.constant.int 2
    %int32_351 = torch.constant.int 32
    %340 = torch.prim.ListConstruct %int1_348, %65, %int32_349, %int2_350, %int32_351 : (!torch.int, !torch.int, !torch.int, !torch.int, !torch.int) -> !torch.list<int>
    %341 = torch.aten.view %195, %340 : !torch.vtensor<[1,?,2,32],f16>, !torch.list<int> -> !torch.vtensor<[1,?,32,2,32],f16>
    torch.bind_symbolic_shape %341, [%63], affine_map<()[s0] -> (1, s0, 32, 2, 32)> : !torch.vtensor<[1,?,32,2,32],f16>
    %int32_352 = torch.constant.int 32
    %int2_353 = torch.constant.int 2
    %int32_354 = torch.constant.int 32
    %342 = torch.prim.ListConstruct %65, %int32_352, %int2_353, %int32_354 : (!torch.int, !torch.int, !torch.int, !torch.int) -> !torch.list<int>
    %343 = torch.aten.view %339, %342 : !torch.vtensor<[1,?,32,2,32],f16>, !torch.list<int> -> !torch.vtensor<[?,32,2,32],f16>
    torch.bind_symbolic_shape %343, [%63], affine_map<()[s0] -> (s0, 32, 2, 32)> : !torch.vtensor<[?,32,2,32],f16>
    %int32_355 = torch.constant.int 32
    %int2_356 = torch.constant.int 2
    %int32_357 = torch.constant.int 32
    %344 = torch.prim.ListConstruct %65, %int32_355, %int2_356, %int32_357 : (!torch.int, !torch.int, !torch.int, !torch.int) -> !torch.list<int>
    %345 = torch.aten.view %341, %344 : !torch.vtensor<[1,?,32,2,32],f16>, !torch.list<int> -> !torch.vtensor<[?,32,2,32],f16>
    torch.bind_symbolic_shape %345, [%63], affine_map<()[s0] -> (s0, 32, 2, 32)> : !torch.vtensor<[?,32,2,32],f16>
    %int1_358 = torch.constant.int 1
    %int1_359 = torch.constant.int 1
    %346 = torch.aten.add.Scalar %302, %int1_358, %int1_359 : !torch.vtensor<[1,?],si64>, !torch.int, !torch.int -> !torch.vtensor<[1,?],si64>
    torch.bind_symbolic_shape %346, [%63], affine_map<()[s0] -> (1, s0)> : !torch.vtensor<[1,?],si64>
    %int1_360 = torch.constant.int 1
    %int1_361 = torch.constant.int 1
    %347 = torch.aten.add.Scalar %303, %int1_360, %int1_361 : !torch.vtensor<[1,?],si64>, !torch.int, !torch.int -> !torch.vtensor<[1,?],si64>
    torch.bind_symbolic_shape %347, [%63], affine_map<()[s0] -> (1, s0)> : !torch.vtensor<[1,?],si64>
    %348 = torch.prim.ListConstruct %65 : (!torch.int) -> !torch.list<int>
    %349 = torch.aten.view %346, %348 : !torch.vtensor<[1,?],si64>, !torch.list<int> -> !torch.vtensor<[?],si64>
    torch.bind_symbolic_shape %349, [%63], affine_map<()[s0] -> (s0)> : !torch.vtensor<[?],si64>
    %350 = torch.prim.ListConstruct %65 : (!torch.int) -> !torch.list<int>
    %351 = torch.aten.view %347, %350 : !torch.vtensor<[1,?],si64>, !torch.list<int> -> !torch.vtensor<[?],si64>
    torch.bind_symbolic_shape %351, [%63], affine_map<()[s0] -> (s0)> : !torch.vtensor<[?],si64>
    %int5_362 = torch.constant.int 5
    %352 = torch.prims.convert_element_type %343, %int5_362 : !torch.vtensor<[?,32,2,32],f16>, !torch.int -> !torch.vtensor<[?,32,2,32],f16>
    torch.bind_symbolic_shape %352, [%63], affine_map<()[s0] -> (s0, 32, 2, 32)> : !torch.vtensor<[?,32,2,32],f16>
    %int5_363 = torch.constant.int 5
    %353 = torch.prims.convert_element_type %345, %int5_363 : !torch.vtensor<[?,32,2,32],f16>, !torch.int -> !torch.vtensor<[?,32,2,32],f16>
    torch.bind_symbolic_shape %353, [%63], affine_map<()[s0] -> (s0, 32, 2, 32)> : !torch.vtensor<[?,32,2,32],f16>
    %354 = torch.prim.ListConstruct %349 : (!torch.vtensor<[?],si64>) -> !torch.list<optional<vtensor>>
    %false_364 = torch.constant.bool false
    %355 = torch.aten.index_put %327, %354, %352, %false_364 : !torch.vtensor<[?,32,2,32],f16>, !torch.list<optional<vtensor>>, !torch.vtensor<[?,32,2,32],f16>, !torch.bool -> !torch.vtensor<[?,32,2,32],f16>
    torch.bind_symbolic_shape %355, [%64], affine_map<()[s0] -> (s0 * 6, 32, 2, 32)> : !torch.vtensor<[?,32,2,32],f16>
    %int3_365 = torch.constant.int 3
    %int2_366 = torch.constant.int 2
    %int32_367 = torch.constant.int 32
    %int2_368 = torch.constant.int 2
    %int32_369 = torch.constant.int 32
    %356 = torch.prim.ListConstruct %66, %int3_365, %int2_366, %int32_367, %int2_368, %int32_369 : (!torch.int, !torch.int, !torch.int, !torch.int, !torch.int, !torch.int) -> !torch.list<int>
    %357 = torch.aten.view %355, %356 : !torch.vtensor<[?,32,2,32],f16>, !torch.list<int> -> !torch.vtensor<[?,3,2,32,2,32],f16>
    torch.bind_symbolic_shape %357, [%64], affine_map<()[s0] -> (s0, 3, 2, 32, 2, 32)> : !torch.vtensor<[?,3,2,32,2,32],f16>
    %int12288_370 = torch.constant.int 12288
    %358 = torch.prim.ListConstruct %66, %int12288_370 : (!torch.int, !torch.int) -> !torch.list<int>
    %359 = torch.aten.view %357, %358 : !torch.vtensor<[?,3,2,32,2,32],f16>, !torch.list<int> -> !torch.vtensor<[?,12288],f16>
    torch.bind_symbolic_shape %359, [%64], affine_map<()[s0] -> (s0, 12288)> : !torch.vtensor<[?,12288],f16>
    %360 = torch.prim.ListConstruct %351 : (!torch.vtensor<[?],si64>) -> !torch.list<optional<vtensor>>
    %false_371 = torch.constant.bool false
    %361 = torch.aten.index_put %337, %360, %353, %false_371 : !torch.vtensor<[?,32,2,32],f16>, !torch.list<optional<vtensor>>, !torch.vtensor<[?,32,2,32],f16>, !torch.bool -> !torch.vtensor<[?,32,2,32],f16>
    torch.bind_symbolic_shape %361, [%64], affine_map<()[s0] -> (s0 * 6, 32, 2, 32)> : !torch.vtensor<[?,32,2,32],f16>
    %int3_372 = torch.constant.int 3
    %int2_373 = torch.constant.int 2
    %int32_374 = torch.constant.int 32
    %int2_375 = torch.constant.int 2
    %int32_376 = torch.constant.int 32
    %362 = torch.prim.ListConstruct %66, %int3_372, %int2_373, %int32_374, %int2_375, %int32_376 : (!torch.int, !torch.int, !torch.int, !torch.int, !torch.int, !torch.int) -> !torch.list<int>
    %363 = torch.aten.view %361, %362 : !torch.vtensor<[?,32,2,32],f16>, !torch.list<int> -> !torch.vtensor<[?,3,2,32,2,32],f16>
    torch.bind_symbolic_shape %363, [%64], affine_map<()[s0] -> (s0, 3, 2, 32, 2, 32)> : !torch.vtensor<[?,3,2,32,2,32],f16>
    %int12288_377 = torch.constant.int 12288
    %364 = torch.prim.ListConstruct %66, %int12288_377 : (!torch.int, !torch.int) -> !torch.list<int>
    %365 = torch.aten.view %363, %364 : !torch.vtensor<[?,3,2,32,2,32],f16>, !torch.list<int> -> !torch.vtensor<[?,12288],f16>
    torch.bind_symbolic_shape %365, [%64], affine_map<()[s0] -> (s0, 12288)> : !torch.vtensor<[?,12288],f16>
    %int-2 = torch.constant.int -2
    %366 = torch.aten.unsqueeze %275, %int-2 : !torch.vtensor<[1,?,2,32],f16>, !torch.int -> !torch.vtensor<[1,?,2,1,32],f16>
    torch.bind_symbolic_shape %366, [%63], affine_map<()[s0] -> (1, s0 * 32, 2, 1, 32)> : !torch.vtensor<[1,?,2,1,32],f16>
    %int-2_378 = torch.constant.int -2
    %367 = torch.aten.unsqueeze %289, %int-2_378 : !torch.vtensor<[1,?,2,32],f16>, !torch.int -> !torch.vtensor<[1,?,2,1,32],f16>
    torch.bind_symbolic_shape %367, [%63], affine_map<()[s0] -> (1, s0 * 32, 2, 1, 32)> : !torch.vtensor<[1,?,2,1,32],f16>
    %int1_379 = torch.constant.int 1
    %int2_380 = torch.constant.int 2
    %int2_381 = torch.constant.int 2
    %int32_382 = torch.constant.int 32
    %368 = torch.prim.ListConstruct %int1_379, %67, %int2_380, %int2_381, %int32_382 : (!torch.int, !torch.int, !torch.int, !torch.int, !torch.int) -> !torch.list<int>
    %false_383 = torch.constant.bool false
    %369 = torch.aten.expand %366, %368, %false_383 : !torch.vtensor<[1,?,2,1,32],f16>, !torch.list<int>, !torch.bool -> !torch.vtensor<[1,?,2,2,32],f16>
    torch.bind_symbolic_shape %369, [%63], affine_map<()[s0] -> (1, s0 * 32, 2, 2, 32)> : !torch.vtensor<[1,?,2,2,32],f16>
    %int1_384 = torch.constant.int 1
    %int2_385 = torch.constant.int 2
    %int2_386 = torch.constant.int 2
    %int32_387 = torch.constant.int 32
    %370 = torch.prim.ListConstruct %int1_384, %67, %int2_385, %int2_386, %int32_387 : (!torch.int, !torch.int, !torch.int, !torch.int, !torch.int) -> !torch.list<int>
    %false_388 = torch.constant.bool false
    %371 = torch.aten.expand %367, %370, %false_388 : !torch.vtensor<[1,?,2,1,32],f16>, !torch.list<int>, !torch.bool -> !torch.vtensor<[1,?,2,2,32],f16>
    torch.bind_symbolic_shape %371, [%63], affine_map<()[s0] -> (1, s0 * 32, 2, 2, 32)> : !torch.vtensor<[1,?,2,2,32],f16>
    %int0_389 = torch.constant.int 0
    %372 = torch.aten.clone %369, %int0_389 : !torch.vtensor<[1,?,2,2,32],f16>, !torch.int -> !torch.vtensor<[1,?,2,2,32],f16>
    torch.bind_symbolic_shape %372, [%63], affine_map<()[s0] -> (1, s0 * 32, 2, 2, 32)> : !torch.vtensor<[1,?,2,2,32],f16>
    %int1_390 = torch.constant.int 1
    %int4_391 = torch.constant.int 4
    %int32_392 = torch.constant.int 32
    %373 = torch.prim.ListConstruct %int1_390, %67, %int4_391, %int32_392 : (!torch.int, !torch.int, !torch.int, !torch.int) -> !torch.list<int>
    %374 = torch.aten._unsafe_view %372, %373 : !torch.vtensor<[1,?,2,2,32],f16>, !torch.list<int> -> !torch.vtensor<[1,?,4,32],f16>
    torch.bind_symbolic_shape %374, [%63], affine_map<()[s0] -> (1, s0 * 32, 4, 32)> : !torch.vtensor<[1,?,4,32],f16>
    %int0_393 = torch.constant.int 0
    %375 = torch.aten.clone %371, %int0_393 : !torch.vtensor<[1,?,2,2,32],f16>, !torch.int -> !torch.vtensor<[1,?,2,2,32],f16>
    torch.bind_symbolic_shape %375, [%63], affine_map<()[s0] -> (1, s0 * 32, 2, 2, 32)> : !torch.vtensor<[1,?,2,2,32],f16>
    %int1_394 = torch.constant.int 1
    %int4_395 = torch.constant.int 4
    %int32_396 = torch.constant.int 32
    %376 = torch.prim.ListConstruct %int1_394, %67, %int4_395, %int32_396 : (!torch.int, !torch.int, !torch.int, !torch.int) -> !torch.list<int>
    %377 = torch.aten._unsafe_view %375, %376 : !torch.vtensor<[1,?,2,2,32],f16>, !torch.list<int> -> !torch.vtensor<[1,?,4,32],f16>
    torch.bind_symbolic_shape %377, [%63], affine_map<()[s0] -> (1, s0 * 32, 4, 32)> : !torch.vtensor<[1,?,4,32],f16>
    %int-2_397 = torch.constant.int -2
    %378 = torch.aten.unsqueeze %193, %int-2_397 : !torch.vtensor<[1,?,2,32],f16>, !torch.int -> !torch.vtensor<[1,?,2,1,32],f16>
    torch.bind_symbolic_shape %378, [%63], affine_map<()[s0] -> (1, s0 * 32, 2, 1, 32)> : !torch.vtensor<[1,?,2,1,32],f16>
    %int-2_398 = torch.constant.int -2
    %379 = torch.aten.unsqueeze %195, %int-2_398 : !torch.vtensor<[1,?,2,32],f16>, !torch.int -> !torch.vtensor<[1,?,2,1,32],f16>
    torch.bind_symbolic_shape %379, [%63], affine_map<()[s0] -> (1, s0 * 32, 2, 1, 32)> : !torch.vtensor<[1,?,2,1,32],f16>
    %int1_399 = torch.constant.int 1
    %int2_400 = torch.constant.int 2
    %int2_401 = torch.constant.int 2
    %int32_402 = torch.constant.int 32
    %380 = torch.prim.ListConstruct %int1_399, %67, %int2_400, %int2_401, %int32_402 : (!torch.int, !torch.int, !torch.int, !torch.int, !torch.int) -> !torch.list<int>
    %false_403 = torch.constant.bool false
    %381 = torch.aten.expand %378, %380, %false_403 : !torch.vtensor<[1,?,2,1,32],f16>, !torch.list<int>, !torch.bool -> !torch.vtensor<[1,?,2,2,32],f16>
    torch.bind_symbolic_shape %381, [%63], affine_map<()[s0] -> (1, s0 * 32, 2, 2, 32)> : !torch.vtensor<[1,?,2,2,32],f16>
    %int1_404 = torch.constant.int 1
    %int2_405 = torch.constant.int 2
    %int2_406 = torch.constant.int 2
    %int32_407 = torch.constant.int 32
    %382 = torch.prim.ListConstruct %int1_404, %67, %int2_405, %int2_406, %int32_407 : (!torch.int, !torch.int, !torch.int, !torch.int, !torch.int) -> !torch.list<int>
    %false_408 = torch.constant.bool false
    %383 = torch.aten.expand %379, %382, %false_408 : !torch.vtensor<[1,?,2,1,32],f16>, !torch.list<int>, !torch.bool -> !torch.vtensor<[1,?,2,2,32],f16>
    torch.bind_symbolic_shape %383, [%63], affine_map<()[s0] -> (1, s0 * 32, 2, 2, 32)> : !torch.vtensor<[1,?,2,2,32],f16>
    %int0_409 = torch.constant.int 0
    %384 = torch.aten.clone %381, %int0_409 : !torch.vtensor<[1,?,2,2,32],f16>, !torch.int -> !torch.vtensor<[1,?,2,2,32],f16>
    torch.bind_symbolic_shape %384, [%63], affine_map<()[s0] -> (1, s0 * 32, 2, 2, 32)> : !torch.vtensor<[1,?,2,2,32],f16>
    %int1_410 = torch.constant.int 1
    %int4_411 = torch.constant.int 4
    %int32_412 = torch.constant.int 32
    %385 = torch.prim.ListConstruct %int1_410, %67, %int4_411, %int32_412 : (!torch.int, !torch.int, !torch.int, !torch.int) -> !torch.list<int>
    %386 = torch.aten._unsafe_view %384, %385 : !torch.vtensor<[1,?,2,2,32],f16>, !torch.list<int> -> !torch.vtensor<[1,?,4,32],f16>
    torch.bind_symbolic_shape %386, [%63], affine_map<()[s0] -> (1, s0 * 32, 4, 32)> : !torch.vtensor<[1,?,4,32],f16>
    %int0_413 = torch.constant.int 0
    %387 = torch.aten.clone %383, %int0_413 : !torch.vtensor<[1,?,2,2,32],f16>, !torch.int -> !torch.vtensor<[1,?,2,2,32],f16>
    torch.bind_symbolic_shape %387, [%63], affine_map<()[s0] -> (1, s0 * 32, 2, 2, 32)> : !torch.vtensor<[1,?,2,2,32],f16>
    %int1_414 = torch.constant.int 1
    %int4_415 = torch.constant.int 4
    %int32_416 = torch.constant.int 32
    %388 = torch.prim.ListConstruct %int1_414, %67, %int4_415, %int32_416 : (!torch.int, !torch.int, !torch.int, !torch.int) -> !torch.list<int>
    %389 = torch.aten._unsafe_view %387, %388 : !torch.vtensor<[1,?,2,2,32],f16>, !torch.list<int> -> !torch.vtensor<[1,?,4,32],f16>
    torch.bind_symbolic_shape %389, [%63], affine_map<()[s0] -> (1, s0 * 32, 4, 32)> : !torch.vtensor<[1,?,4,32],f16>
    %int1_417 = torch.constant.int 1
    %int2_418 = torch.constant.int 2
    %390 = torch.aten.transpose.int %228, %int1_417, %int2_418 : !torch.vtensor<[1,?,4,32],f16>, !torch.int, !torch.int -> !torch.vtensor<[1,4,?,32],f16>
    torch.bind_symbolic_shape %390, [%63], affine_map<()[s0] -> (1, 4, s0 * 32, 32)> : !torch.vtensor<[1,4,?,32],f16>
    %int1_419 = torch.constant.int 1
    %int2_420 = torch.constant.int 2
    %391 = torch.aten.transpose.int %242, %int1_419, %int2_420 : !torch.vtensor<[1,?,4,32],f16>, !torch.int, !torch.int -> !torch.vtensor<[1,4,?,32],f16>
    torch.bind_symbolic_shape %391, [%63], affine_map<()[s0] -> (1, 4, s0 * 32, 32)> : !torch.vtensor<[1,4,?,32],f16>
    %int1_421 = torch.constant.int 1
    %int2_422 = torch.constant.int 2
    %392 = torch.aten.transpose.int %374, %int1_421, %int2_422 : !torch.vtensor<[1,?,4,32],f16>, !torch.int, !torch.int -> !torch.vtensor<[1,4,?,32],f16>
    torch.bind_symbolic_shape %392, [%63], affine_map<()[s0] -> (1, 4, s0 * 32, 32)> : !torch.vtensor<[1,4,?,32],f16>
    %int1_423 = torch.constant.int 1
    %int2_424 = torch.constant.int 2
    %393 = torch.aten.transpose.int %377, %int1_423, %int2_424 : !torch.vtensor<[1,?,4,32],f16>, !torch.int, !torch.int -> !torch.vtensor<[1,4,?,32],f16>
    torch.bind_symbolic_shape %393, [%63], affine_map<()[s0] -> (1, 4, s0 * 32, 32)> : !torch.vtensor<[1,4,?,32],f16>
    %int1_425 = torch.constant.int 1
    %int2_426 = torch.constant.int 2
    %394 = torch.aten.transpose.int %386, %int1_425, %int2_426 : !torch.vtensor<[1,?,4,32],f16>, !torch.int, !torch.int -> !torch.vtensor<[1,4,?,32],f16>
    torch.bind_symbolic_shape %394, [%63], affine_map<()[s0] -> (1, 4, s0 * 32, 32)> : !torch.vtensor<[1,4,?,32],f16>
    %int1_427 = torch.constant.int 1
    %int2_428 = torch.constant.int 2
    %395 = torch.aten.transpose.int %389, %int1_427, %int2_428 : !torch.vtensor<[1,?,4,32],f16>, !torch.int, !torch.int -> !torch.vtensor<[1,4,?,32],f16>
    torch.bind_symbolic_shape %395, [%63], affine_map<()[s0] -> (1, 4, s0 * 32, 32)> : !torch.vtensor<[1,4,?,32],f16>
    %int5_429 = torch.constant.int 5
    %396 = torch.prims.convert_element_type %390, %int5_429 : !torch.vtensor<[1,4,?,32],f16>, !torch.int -> !torch.vtensor<[1,4,?,32],f16>
    torch.bind_symbolic_shape %396, [%63], affine_map<()[s0] -> (1, 4, s0 * 32, 32)> : !torch.vtensor<[1,4,?,32],f16>
    %int5_430 = torch.constant.int 5
    %397 = torch.prims.convert_element_type %391, %int5_430 : !torch.vtensor<[1,4,?,32],f16>, !torch.int -> !torch.vtensor<[1,4,?,32],f16>
    torch.bind_symbolic_shape %397, [%63], affine_map<()[s0] -> (1, 4, s0 * 32, 32)> : !torch.vtensor<[1,4,?,32],f16>
    %int5_431 = torch.constant.int 5
    %398 = torch.prims.convert_element_type %392, %int5_431 : !torch.vtensor<[1,4,?,32],f16>, !torch.int -> !torch.vtensor<[1,4,?,32],f16>
    torch.bind_symbolic_shape %398, [%63], affine_map<()[s0] -> (1, 4, s0 * 32, 32)> : !torch.vtensor<[1,4,?,32],f16>
    %int5_432 = torch.constant.int 5
    %399 = torch.prims.convert_element_type %393, %int5_432 : !torch.vtensor<[1,4,?,32],f16>, !torch.int -> !torch.vtensor<[1,4,?,32],f16>
    torch.bind_symbolic_shape %399, [%63], affine_map<()[s0] -> (1, 4, s0 * 32, 32)> : !torch.vtensor<[1,4,?,32],f16>
    %int5_433 = torch.constant.int 5
    %400 = torch.prims.convert_element_type %394, %int5_433 : !torch.vtensor<[1,4,?,32],f16>, !torch.int -> !torch.vtensor<[1,4,?,32],f16>
    torch.bind_symbolic_shape %400, [%63], affine_map<()[s0] -> (1, 4, s0 * 32, 32)> : !torch.vtensor<[1,4,?,32],f16>
    %int5_434 = torch.constant.int 5
    %401 = torch.prims.convert_element_type %395, %int5_434 : !torch.vtensor<[1,4,?,32],f16>, !torch.int -> !torch.vtensor<[1,4,?,32],f16>
    torch.bind_symbolic_shape %401, [%63], affine_map<()[s0] -> (1, 4, s0 * 32, 32)> : !torch.vtensor<[1,4,?,32],f16>
    %int5_435 = torch.constant.int 5
    %402 = torch.prims.convert_element_type %102, %int5_435 : !torch.vtensor<[1,1,?,?],f16>, !torch.int -> !torch.vtensor<[1,1,?,?],f16>
    torch.bind_symbolic_shape %402, [%63], affine_map<()[s0] -> (1, 1, s0 * 32, s0 * 32)> : !torch.vtensor<[1,1,?,?],f16>
    %int5_436 = torch.constant.int 5
    %403 = torch.prims.convert_element_type %105, %int5_436 : !torch.vtensor<[1,1,?,?],f16>, !torch.int -> !torch.vtensor<[1,1,?,?],f16>
    torch.bind_symbolic_shape %403, [%63], affine_map<()[s0] -> (1, 1, s0 * 32, s0 * 32)> : !torch.vtensor<[1,1,?,?],f16>
    %float0.000000e00 = torch.constant.float 0.000000e+00
    %false_437 = torch.constant.bool false
    %none_438 = torch.constant.none
    %404:2 = torch.operator "torch.aten._scaled_dot_product_flash_attention_for_cpu"(%396, %398, %400, %float0.000000e00, %false_437, %402, %none_438) : (!torch.vtensor<[1,4,?,32],f16>, !torch.vtensor<[1,4,?,32],f16>, !torch.vtensor<[1,4,?,32],f16>, !torch.float, !torch.bool, !torch.vtensor<[1,1,?,?],f16>, !torch.none) -> (!torch.vtensor<[1,4,?,32],f16>, !torch.vtensor<[1,4,?],f32>) 
    torch.bind_symbolic_shape %404#0, [%63], affine_map<()[s0] -> (1, 4, s0 * 32, 32)> : !torch.vtensor<[1,4,?,32],f16>
    %float0.000000e00_439 = torch.constant.float 0.000000e+00
    %false_440 = torch.constant.bool false
    %none_441 = torch.constant.none
    %405:2 = torch.operator "torch.aten._scaled_dot_product_flash_attention_for_cpu"(%397, %399, %401, %float0.000000e00_439, %false_440, %403, %none_441) : (!torch.vtensor<[1,4,?,32],f16>, !torch.vtensor<[1,4,?,32],f16>, !torch.vtensor<[1,4,?,32],f16>, !torch.float, !torch.bool, !torch.vtensor<[1,1,?,?],f16>, !torch.none) -> (!torch.vtensor<[1,4,?,32],f16>, !torch.vtensor<[1,4,?],f32>) 
    torch.bind_symbolic_shape %405#0, [%63], affine_map<()[s0] -> (1, 4, s0 * 32, 32)> : !torch.vtensor<[1,4,?,32],f16>
    %int1_442 = torch.constant.int 1
    %int2_443 = torch.constant.int 2
    %406 = torch.aten.transpose.int %404#0, %int1_442, %int2_443 : !torch.vtensor<[1,4,?,32],f16>, !torch.int, !torch.int -> !torch.vtensor<[1,?,4,32],f16>
    torch.bind_symbolic_shape %406, [%63], affine_map<()[s0] -> (1, s0 * 32, 4, 32)> : !torch.vtensor<[1,?,4,32],f16>
    %int1_444 = torch.constant.int 1
    %int2_445 = torch.constant.int 2
    %407 = torch.aten.transpose.int %405#0, %int1_444, %int2_445 : !torch.vtensor<[1,4,?,32],f16>, !torch.int, !torch.int -> !torch.vtensor<[1,?,4,32],f16>
    torch.bind_symbolic_shape %407, [%63], affine_map<()[s0] -> (1, s0 * 32, 4, 32)> : !torch.vtensor<[1,?,4,32],f16>
    %int1_446 = torch.constant.int 1
    %int128_447 = torch.constant.int 128
    %408 = torch.prim.ListConstruct %int1_446, %67, %int128_447 : (!torch.int, !torch.int, !torch.int) -> !torch.list<int>
    %409 = torch.aten.view %406, %408 : !torch.vtensor<[1,?,4,32],f16>, !torch.list<int> -> !torch.vtensor<[1,?,128],f16>
    torch.bind_symbolic_shape %409, [%63], affine_map<()[s0] -> (1, s0 * 32, 128)> : !torch.vtensor<[1,?,128],f16>
    %int1_448 = torch.constant.int 1
    %int128_449 = torch.constant.int 128
    %410 = torch.prim.ListConstruct %int1_448, %67, %int128_449 : (!torch.int, !torch.int, !torch.int) -> !torch.list<int>
    %411 = torch.aten.view %407, %410 : !torch.vtensor<[1,?,4,32],f16>, !torch.list<int> -> !torch.vtensor<[1,?,128],f16>
    torch.bind_symbolic_shape %411, [%63], affine_map<()[s0] -> (1, s0 * 32, 128)> : !torch.vtensor<[1,?,128],f16>
    %int1_450 = torch.constant.int 1
    %int0_451 = torch.constant.int 0
    %412 = torch.prim.ListConstruct %int1_450, %int0_451 : (!torch.int, !torch.int) -> !torch.list<int>
    %413 = torch.aten.permute %10, %412 : !torch.vtensor<[256,128],f32>, !torch.list<int> -> !torch.vtensor<[128,256],f32>
    %int1_452 = torch.constant.int 1
    %int0_453 = torch.constant.int 0
    %414 = torch.prim.ListConstruct %int1_452, %int0_453 : (!torch.int, !torch.int) -> !torch.list<int>
    %415 = torch.aten.permute %11, %414 : !torch.vtensor<[256,128],f32>, !torch.list<int> -> !torch.vtensor<[128,256],f32>
    %int5_454 = torch.constant.int 5
    %416 = torch.prims.convert_element_type %413, %int5_454 : !torch.vtensor<[128,256],f32>, !torch.int -> !torch.vtensor<[128,256],f16>
    %int128_455 = torch.constant.int 128
    %417 = torch.prim.ListConstruct %67, %int128_455 : (!torch.int, !torch.int) -> !torch.list<int>
    %418 = torch.aten.view %409, %417 : !torch.vtensor<[1,?,128],f16>, !torch.list<int> -> !torch.vtensor<[?,128],f16>
    torch.bind_symbolic_shape %418, [%63], affine_map<()[s0] -> (s0 * 32, 128)> : !torch.vtensor<[?,128],f16>
    %419 = torch.aten.mm %418, %416 : !torch.vtensor<[?,128],f16>, !torch.vtensor<[128,256],f16> -> !torch.vtensor<[?,256],f16>
    torch.bind_symbolic_shape %419, [%63], affine_map<()[s0] -> (s0 * 32, 256)> : !torch.vtensor<[?,256],f16>
    %int1_456 = torch.constant.int 1
    %int256_457 = torch.constant.int 256
    %420 = torch.prim.ListConstruct %int1_456, %67, %int256_457 : (!torch.int, !torch.int, !torch.int) -> !torch.list<int>
    %421 = torch.aten.view %419, %420 : !torch.vtensor<[?,256],f16>, !torch.list<int> -> !torch.vtensor<[1,?,256],f16>
    torch.bind_symbolic_shape %421, [%63], affine_map<()[s0] -> (1, s0 * 32, 256)> : !torch.vtensor<[1,?,256],f16>
    %int5_458 = torch.constant.int 5
    %422 = torch.prims.convert_element_type %415, %int5_458 : !torch.vtensor<[128,256],f32>, !torch.int -> !torch.vtensor<[128,256],f16>
    %int128_459 = torch.constant.int 128
    %423 = torch.prim.ListConstruct %67, %int128_459 : (!torch.int, !torch.int) -> !torch.list<int>
    %424 = torch.aten.view %411, %423 : !torch.vtensor<[1,?,128],f16>, !torch.list<int> -> !torch.vtensor<[?,128],f16>
    torch.bind_symbolic_shape %424, [%63], affine_map<()[s0] -> (s0 * 32, 128)> : !torch.vtensor<[?,128],f16>
    %425 = torch.aten.mm %424, %422 : !torch.vtensor<[?,128],f16>, !torch.vtensor<[128,256],f16> -> !torch.vtensor<[?,256],f16>
    torch.bind_symbolic_shape %425, [%63], affine_map<()[s0] -> (s0 * 32, 256)> : !torch.vtensor<[?,256],f16>
    %int1_460 = torch.constant.int 1
    %int256_461 = torch.constant.int 256
    %426 = torch.prim.ListConstruct %int1_460, %67, %int256_461 : (!torch.int, !torch.int, !torch.int) -> !torch.list<int>
    %427 = torch.aten.view %425, %426 : !torch.vtensor<[?,256],f16>, !torch.list<int> -> !torch.vtensor<[1,?,256],f16>
    torch.bind_symbolic_shape %427, [%63], affine_map<()[s0] -> (1, s0 * 32, 256)> : !torch.vtensor<[1,?,256],f16>
    %428 = torch_c.to_builtin_tensor %421 : !torch.vtensor<[1,?,256],f16> -> tensor<1x?x256xf16>
    %c1_462 = arith.constant 1 : index
    %dim_463 = tensor.dim %428, %c1_462 : tensor<1x?x256xf16>
    %429 = flow.tensor.barrier %428 : tensor<1x?x256xf16>{%dim_463} on #hal.device.promise<@__device_0>
    %430 = torch_c.from_builtin_tensor %429 : tensor<1x?x256xf16> -> !torch.vtensor<[1,?,256],f16>
    torch.bind_symbolic_shape %430, [%63], affine_map<()[s0] -> (1, s0 * 32, 256)> : !torch.vtensor<[1,?,256],f16>
    %431 = torch_c.to_builtin_tensor %427 : !torch.vtensor<[1,?,256],f16> -> tensor<1x?x256xf16>
    %c1_464 = arith.constant 1 : index
    %dim_465 = tensor.dim %431, %c1_464 : tensor<1x?x256xf16>
    %432 = flow.tensor.transfer %431 : tensor<1x?x256xf16>{%dim_465} to #hal.device.promise<@__device_0>
    %433 = torch_c.from_builtin_tensor %432 : tensor<1x?x256xf16> -> !torch.vtensor<[1,?,256],f16>
    torch.bind_symbolic_shape %433, [%63], affine_map<()[s0] -> (1, s0 * 32, 256)> : !torch.vtensor<[1,?,256],f16>
    %int1_466 = torch.constant.int 1
    %434 = torch.aten.add.Tensor %430, %433, %int1_466 : !torch.vtensor<[1,?,256],f16>, !torch.vtensor<[1,?,256],f16>, !torch.int -> !torch.vtensor<[1,?,256],f16>
    torch.bind_symbolic_shape %434, [%63], affine_map<()[s0] -> (1, s0 * 32, 256)> : !torch.vtensor<[1,?,256],f16>
    %435 = torch_c.to_builtin_tensor %434 : !torch.vtensor<[1,?,256],f16> -> tensor<1x?x256xf16>
    %c1_467 = arith.constant 1 : index
    %dim_468 = tensor.dim %435, %c1_467 : tensor<1x?x256xf16>
    %436 = flow.tensor.barrier %435 : tensor<1x?x256xf16>{%dim_468} on #hal.device.promise<@__device_0>
    %437 = torch_c.from_builtin_tensor %436 : tensor<1x?x256xf16> -> !torch.vtensor<[1,?,256],f16>
    torch.bind_symbolic_shape %437, [%63], affine_map<()[s0] -> (1, s0 * 32, 256)> : !torch.vtensor<[1,?,256],f16>
    %438 = torch_c.to_builtin_tensor %434 : !torch.vtensor<[1,?,256],f16> -> tensor<1x?x256xf16>
    %c1_469 = arith.constant 1 : index
    %dim_470 = tensor.dim %438, %c1_469 : tensor<1x?x256xf16>
    %439 = flow.tensor.transfer %438 : tensor<1x?x256xf16>{%dim_470} to #hal.device.promise<@__device_1>
    %440 = torch_c.from_builtin_tensor %439 : tensor<1x?x256xf16> -> !torch.vtensor<[1,?,256],f16>
    torch.bind_symbolic_shape %440, [%63], affine_map<()[s0] -> (1, s0 * 32, 256)> : !torch.vtensor<[1,?,256],f16>
    %int1_471 = torch.constant.int 1
    %441 = torch.aten.add.Tensor %113, %437, %int1_471 : !torch.vtensor<[1,?,256],f16>, !torch.vtensor<[1,?,256],f16>, !torch.int -> !torch.vtensor<[1,?,256],f16>
    torch.bind_symbolic_shape %441, [%63], affine_map<()[s0] -> (1, s0 * 32, 256)> : !torch.vtensor<[1,?,256],f16>
    %int1_472 = torch.constant.int 1
    %442 = torch.aten.add.Tensor %115, %440, %int1_472 : !torch.vtensor<[1,?,256],f16>, !torch.vtensor<[1,?,256],f16>, !torch.int -> !torch.vtensor<[1,?,256],f16>
    torch.bind_symbolic_shape %442, [%63], affine_map<()[s0] -> (1, s0 * 32, 256)> : !torch.vtensor<[1,?,256],f16>
    %int6_473 = torch.constant.int 6
    %443 = torch.prims.convert_element_type %441, %int6_473 : !torch.vtensor<[1,?,256],f16>, !torch.int -> !torch.vtensor<[1,?,256],f32>
    torch.bind_symbolic_shape %443, [%63], affine_map<()[s0] -> (1, s0 * 32, 256)> : !torch.vtensor<[1,?,256],f32>
    %int6_474 = torch.constant.int 6
    %444 = torch.prims.convert_element_type %442, %int6_474 : !torch.vtensor<[1,?,256],f16>, !torch.int -> !torch.vtensor<[1,?,256],f32>
    torch.bind_symbolic_shape %444, [%63], affine_map<()[s0] -> (1, s0 * 32, 256)> : !torch.vtensor<[1,?,256],f32>
    %int2_475 = torch.constant.int 2
    %445 = torch.aten.pow.Tensor_Scalar %443, %int2_475 : !torch.vtensor<[1,?,256],f32>, !torch.int -> !torch.vtensor<[1,?,256],f32>
    torch.bind_symbolic_shape %445, [%63], affine_map<()[s0] -> (1, s0 * 32, 256)> : !torch.vtensor<[1,?,256],f32>
    %int2_476 = torch.constant.int 2
    %446 = torch.aten.pow.Tensor_Scalar %444, %int2_476 : !torch.vtensor<[1,?,256],f32>, !torch.int -> !torch.vtensor<[1,?,256],f32>
    torch.bind_symbolic_shape %446, [%63], affine_map<()[s0] -> (1, s0 * 32, 256)> : !torch.vtensor<[1,?,256],f32>
    %int-1_477 = torch.constant.int -1
    %447 = torch.prim.ListConstruct %int-1_477 : (!torch.int) -> !torch.list<int>
    %true_478 = torch.constant.bool true
    %none_479 = torch.constant.none
    %448 = torch.aten.mean.dim %445, %447, %true_478, %none_479 : !torch.vtensor<[1,?,256],f32>, !torch.list<int>, !torch.bool, !torch.none -> !torch.vtensor<[1,?,1],f32>
    torch.bind_symbolic_shape %448, [%63], affine_map<()[s0] -> (1, s0 * 32, 1)> : !torch.vtensor<[1,?,1],f32>
    %int-1_480 = torch.constant.int -1
    %449 = torch.prim.ListConstruct %int-1_480 : (!torch.int) -> !torch.list<int>
    %true_481 = torch.constant.bool true
    %none_482 = torch.constant.none
    %450 = torch.aten.mean.dim %446, %449, %true_481, %none_482 : !torch.vtensor<[1,?,256],f32>, !torch.list<int>, !torch.bool, !torch.none -> !torch.vtensor<[1,?,1],f32>
    torch.bind_symbolic_shape %450, [%63], affine_map<()[s0] -> (1, s0 * 32, 1)> : !torch.vtensor<[1,?,1],f32>
    %float1.000000e-02_483 = torch.constant.float 1.000000e-02
    %int1_484 = torch.constant.int 1
    %451 = torch.aten.add.Scalar %448, %float1.000000e-02_483, %int1_484 : !torch.vtensor<[1,?,1],f32>, !torch.float, !torch.int -> !torch.vtensor<[1,?,1],f32>
    torch.bind_symbolic_shape %451, [%63], affine_map<()[s0] -> (1, s0 * 32, 1)> : !torch.vtensor<[1,?,1],f32>
    %float1.000000e-02_485 = torch.constant.float 1.000000e-02
    %int1_486 = torch.constant.int 1
    %452 = torch.aten.add.Scalar %450, %float1.000000e-02_485, %int1_486 : !torch.vtensor<[1,?,1],f32>, !torch.float, !torch.int -> !torch.vtensor<[1,?,1],f32>
    torch.bind_symbolic_shape %452, [%63], affine_map<()[s0] -> (1, s0 * 32, 1)> : !torch.vtensor<[1,?,1],f32>
    %453 = torch.aten.rsqrt %451 : !torch.vtensor<[1,?,1],f32> -> !torch.vtensor<[1,?,1],f32>
    torch.bind_symbolic_shape %453, [%63], affine_map<()[s0] -> (1, s0 * 32, 1)> : !torch.vtensor<[1,?,1],f32>
    %454 = torch.aten.rsqrt %452 : !torch.vtensor<[1,?,1],f32> -> !torch.vtensor<[1,?,1],f32>
    torch.bind_symbolic_shape %454, [%63], affine_map<()[s0] -> (1, s0 * 32, 1)> : !torch.vtensor<[1,?,1],f32>
    %455 = torch.aten.mul.Tensor %443, %453 : !torch.vtensor<[1,?,256],f32>, !torch.vtensor<[1,?,1],f32> -> !torch.vtensor<[1,?,256],f32>
    torch.bind_symbolic_shape %455, [%63], affine_map<()[s0] -> (1, s0 * 32, 256)> : !torch.vtensor<[1,?,256],f32>
    %456 = torch.aten.mul.Tensor %444, %454 : !torch.vtensor<[1,?,256],f32>, !torch.vtensor<[1,?,1],f32> -> !torch.vtensor<[1,?,256],f32>
    torch.bind_symbolic_shape %456, [%63], affine_map<()[s0] -> (1, s0 * 32, 256)> : !torch.vtensor<[1,?,256],f32>
    %int5_487 = torch.constant.int 5
    %457 = torch.prims.convert_element_type %455, %int5_487 : !torch.vtensor<[1,?,256],f32>, !torch.int -> !torch.vtensor<[1,?,256],f16>
    torch.bind_symbolic_shape %457, [%63], affine_map<()[s0] -> (1, s0 * 32, 256)> : !torch.vtensor<[1,?,256],f16>
    %int5_488 = torch.constant.int 5
    %458 = torch.prims.convert_element_type %456, %int5_488 : !torch.vtensor<[1,?,256],f32>, !torch.int -> !torch.vtensor<[1,?,256],f16>
    torch.bind_symbolic_shape %458, [%63], affine_map<()[s0] -> (1, s0 * 32, 256)> : !torch.vtensor<[1,?,256],f16>
    %459 = torch.aten.mul.Tensor %12, %457 : !torch.vtensor<[256],f32>, !torch.vtensor<[1,?,256],f16> -> !torch.vtensor<[1,?,256],f32>
    torch.bind_symbolic_shape %459, [%63], affine_map<()[s0] -> (1, s0 * 32, 256)> : !torch.vtensor<[1,?,256],f32>
    %460 = torch.aten.mul.Tensor %13, %458 : !torch.vtensor<[256],f32>, !torch.vtensor<[1,?,256],f16> -> !torch.vtensor<[1,?,256],f32>
    torch.bind_symbolic_shape %460, [%63], affine_map<()[s0] -> (1, s0 * 32, 256)> : !torch.vtensor<[1,?,256],f32>
    %int5_489 = torch.constant.int 5
    %461 = torch.prims.convert_element_type %459, %int5_489 : !torch.vtensor<[1,?,256],f32>, !torch.int -> !torch.vtensor<[1,?,256],f16>
    torch.bind_symbolic_shape %461, [%63], affine_map<()[s0] -> (1, s0 * 32, 256)> : !torch.vtensor<[1,?,256],f16>
    %int5_490 = torch.constant.int 5
    %462 = torch.prims.convert_element_type %460, %int5_490 : !torch.vtensor<[1,?,256],f32>, !torch.int -> !torch.vtensor<[1,?,256],f16>
    torch.bind_symbolic_shape %462, [%63], affine_map<()[s0] -> (1, s0 * 32, 256)> : !torch.vtensor<[1,?,256],f16>
    %int1_491 = torch.constant.int 1
    %int0_492 = torch.constant.int 0
    %463 = torch.prim.ListConstruct %int1_491, %int0_492 : (!torch.int, !torch.int) -> !torch.list<int>
    %464 = torch.aten.permute %14, %463 : !torch.vtensor<[12,256],f32>, !torch.list<int> -> !torch.vtensor<[256,12],f32>
    %int1_493 = torch.constant.int 1
    %int0_494 = torch.constant.int 0
    %465 = torch.prim.ListConstruct %int1_493, %int0_494 : (!torch.int, !torch.int) -> !torch.list<int>
    %466 = torch.aten.permute %15, %465 : !torch.vtensor<[11,256],f32>, !torch.list<int> -> !torch.vtensor<[256,11],f32>
    %int5_495 = torch.constant.int 5
    %467 = torch.prims.convert_element_type %464, %int5_495 : !torch.vtensor<[256,12],f32>, !torch.int -> !torch.vtensor<[256,12],f16>
    %int256_496 = torch.constant.int 256
    %468 = torch.prim.ListConstruct %67, %int256_496 : (!torch.int, !torch.int) -> !torch.list<int>
    %469 = torch.aten.view %461, %468 : !torch.vtensor<[1,?,256],f16>, !torch.list<int> -> !torch.vtensor<[?,256],f16>
    torch.bind_symbolic_shape %469, [%63], affine_map<()[s0] -> (s0 * 32, 256)> : !torch.vtensor<[?,256],f16>
    %470 = torch.aten.mm %469, %467 : !torch.vtensor<[?,256],f16>, !torch.vtensor<[256,12],f16> -> !torch.vtensor<[?,12],f16>
    torch.bind_symbolic_shape %470, [%63], affine_map<()[s0] -> (s0 * 32, 12)> : !torch.vtensor<[?,12],f16>
    %int1_497 = torch.constant.int 1
    %int12 = torch.constant.int 12
    %471 = torch.prim.ListConstruct %int1_497, %67, %int12 : (!torch.int, !torch.int, !torch.int) -> !torch.list<int>
    %472 = torch.aten.view %470, %471 : !torch.vtensor<[?,12],f16>, !torch.list<int> -> !torch.vtensor<[1,?,12],f16>
    torch.bind_symbolic_shape %472, [%63], affine_map<()[s0] -> (1, s0 * 32, 12)> : !torch.vtensor<[1,?,12],f16>
    %int5_498 = torch.constant.int 5
    %473 = torch.prims.convert_element_type %466, %int5_498 : !torch.vtensor<[256,11],f32>, !torch.int -> !torch.vtensor<[256,11],f16>
    %int256_499 = torch.constant.int 256
    %474 = torch.prim.ListConstruct %67, %int256_499 : (!torch.int, !torch.int) -> !torch.list<int>
    %475 = torch.aten.view %462, %474 : !torch.vtensor<[1,?,256],f16>, !torch.list<int> -> !torch.vtensor<[?,256],f16>
    torch.bind_symbolic_shape %475, [%63], affine_map<()[s0] -> (s0 * 32, 256)> : !torch.vtensor<[?,256],f16>
    %476 = torch.aten.mm %475, %473 : !torch.vtensor<[?,256],f16>, !torch.vtensor<[256,11],f16> -> !torch.vtensor<[?,11],f16>
    torch.bind_symbolic_shape %476, [%63], affine_map<()[s0] -> (s0 * 32, 11)> : !torch.vtensor<[?,11],f16>
    %int1_500 = torch.constant.int 1
    %int11_501 = torch.constant.int 11
    %477 = torch.prim.ListConstruct %int1_500, %67, %int11_501 : (!torch.int, !torch.int, !torch.int) -> !torch.list<int>
    %478 = torch.aten.view %476, %477 : !torch.vtensor<[?,11],f16>, !torch.list<int> -> !torch.vtensor<[1,?,11],f16>
    torch.bind_symbolic_shape %478, [%63], affine_map<()[s0] -> (1, s0 * 32, 11)> : !torch.vtensor<[1,?,11],f16>
    %479 = torch.aten.silu %472 : !torch.vtensor<[1,?,12],f16> -> !torch.vtensor<[1,?,12],f16>
    torch.bind_symbolic_shape %479, [%63], affine_map<()[s0] -> (1, s0 * 32, 12)> : !torch.vtensor<[1,?,12],f16>
    %480 = torch.aten.silu %478 : !torch.vtensor<[1,?,11],f16> -> !torch.vtensor<[1,?,11],f16>
    torch.bind_symbolic_shape %480, [%63], affine_map<()[s0] -> (1, s0 * 32, 11)> : !torch.vtensor<[1,?,11],f16>
    %int1_502 = torch.constant.int 1
    %int0_503 = torch.constant.int 0
    %481 = torch.prim.ListConstruct %int1_502, %int0_503 : (!torch.int, !torch.int) -> !torch.list<int>
    %482 = torch.aten.permute %16, %481 : !torch.vtensor<[12,256],f32>, !torch.list<int> -> !torch.vtensor<[256,12],f32>
    %int1_504 = torch.constant.int 1
    %int0_505 = torch.constant.int 0
    %483 = torch.prim.ListConstruct %int1_504, %int0_505 : (!torch.int, !torch.int) -> !torch.list<int>
    %484 = torch.aten.permute %17, %483 : !torch.vtensor<[11,256],f32>, !torch.list<int> -> !torch.vtensor<[256,11],f32>
    %int5_506 = torch.constant.int 5
    %485 = torch.prims.convert_element_type %482, %int5_506 : !torch.vtensor<[256,12],f32>, !torch.int -> !torch.vtensor<[256,12],f16>
    %int256_507 = torch.constant.int 256
    %486 = torch.prim.ListConstruct %67, %int256_507 : (!torch.int, !torch.int) -> !torch.list<int>
    %487 = torch.aten.view %461, %486 : !torch.vtensor<[1,?,256],f16>, !torch.list<int> -> !torch.vtensor<[?,256],f16>
    torch.bind_symbolic_shape %487, [%63], affine_map<()[s0] -> (s0 * 32, 256)> : !torch.vtensor<[?,256],f16>
    %488 = torch.aten.mm %487, %485 : !torch.vtensor<[?,256],f16>, !torch.vtensor<[256,12],f16> -> !torch.vtensor<[?,12],f16>
    torch.bind_symbolic_shape %488, [%63], affine_map<()[s0] -> (s0 * 32, 12)> : !torch.vtensor<[?,12],f16>
    %int1_508 = torch.constant.int 1
    %int12_509 = torch.constant.int 12
    %489 = torch.prim.ListConstruct %int1_508, %67, %int12_509 : (!torch.int, !torch.int, !torch.int) -> !torch.list<int>
    %490 = torch.aten.view %488, %489 : !torch.vtensor<[?,12],f16>, !torch.list<int> -> !torch.vtensor<[1,?,12],f16>
    torch.bind_symbolic_shape %490, [%63], affine_map<()[s0] -> (1, s0 * 32, 12)> : !torch.vtensor<[1,?,12],f16>
    %int5_510 = torch.constant.int 5
    %491 = torch.prims.convert_element_type %484, %int5_510 : !torch.vtensor<[256,11],f32>, !torch.int -> !torch.vtensor<[256,11],f16>
    %int256_511 = torch.constant.int 256
    %492 = torch.prim.ListConstruct %67, %int256_511 : (!torch.int, !torch.int) -> !torch.list<int>
    %493 = torch.aten.view %462, %492 : !torch.vtensor<[1,?,256],f16>, !torch.list<int> -> !torch.vtensor<[?,256],f16>
    torch.bind_symbolic_shape %493, [%63], affine_map<()[s0] -> (s0 * 32, 256)> : !torch.vtensor<[?,256],f16>
    %494 = torch.aten.mm %493, %491 : !torch.vtensor<[?,256],f16>, !torch.vtensor<[256,11],f16> -> !torch.vtensor<[?,11],f16>
    torch.bind_symbolic_shape %494, [%63], affine_map<()[s0] -> (s0 * 32, 11)> : !torch.vtensor<[?,11],f16>
    %int1_512 = torch.constant.int 1
    %int11_513 = torch.constant.int 11
    %495 = torch.prim.ListConstruct %int1_512, %67, %int11_513 : (!torch.int, !torch.int, !torch.int) -> !torch.list<int>
    %496 = torch.aten.view %494, %495 : !torch.vtensor<[?,11],f16>, !torch.list<int> -> !torch.vtensor<[1,?,11],f16>
    torch.bind_symbolic_shape %496, [%63], affine_map<()[s0] -> (1, s0 * 32, 11)> : !torch.vtensor<[1,?,11],f16>
    %497 = torch.aten.mul.Tensor %479, %490 : !torch.vtensor<[1,?,12],f16>, !torch.vtensor<[1,?,12],f16> -> !torch.vtensor<[1,?,12],f16>
    torch.bind_symbolic_shape %497, [%63], affine_map<()[s0] -> (1, s0 * 32, 12)> : !torch.vtensor<[1,?,12],f16>
    %498 = torch.aten.mul.Tensor %480, %496 : !torch.vtensor<[1,?,11],f16>, !torch.vtensor<[1,?,11],f16> -> !torch.vtensor<[1,?,11],f16>
    torch.bind_symbolic_shape %498, [%63], affine_map<()[s0] -> (1, s0 * 32, 11)> : !torch.vtensor<[1,?,11],f16>
    %int1_514 = torch.constant.int 1
    %int0_515 = torch.constant.int 0
    %499 = torch.prim.ListConstruct %int1_514, %int0_515 : (!torch.int, !torch.int) -> !torch.list<int>
    %500 = torch.aten.permute %18, %499 : !torch.vtensor<[256,12],f32>, !torch.list<int> -> !torch.vtensor<[12,256],f32>
    %int1_516 = torch.constant.int 1
    %int0_517 = torch.constant.int 0
    %501 = torch.prim.ListConstruct %int1_516, %int0_517 : (!torch.int, !torch.int) -> !torch.list<int>
    %502 = torch.aten.permute %19, %501 : !torch.vtensor<[256,11],f32>, !torch.list<int> -> !torch.vtensor<[11,256],f32>
    %int5_518 = torch.constant.int 5
    %503 = torch.prims.convert_element_type %500, %int5_518 : !torch.vtensor<[12,256],f32>, !torch.int -> !torch.vtensor<[12,256],f16>
    %int12_519 = torch.constant.int 12
    %504 = torch.prim.ListConstruct %67, %int12_519 : (!torch.int, !torch.int) -> !torch.list<int>
    %505 = torch.aten.view %497, %504 : !torch.vtensor<[1,?,12],f16>, !torch.list<int> -> !torch.vtensor<[?,12],f16>
    torch.bind_symbolic_shape %505, [%63], affine_map<()[s0] -> (s0 * 32, 12)> : !torch.vtensor<[?,12],f16>
    %506 = torch.aten.mm %505, %503 : !torch.vtensor<[?,12],f16>, !torch.vtensor<[12,256],f16> -> !torch.vtensor<[?,256],f16>
    torch.bind_symbolic_shape %506, [%63], affine_map<()[s0] -> (s0 * 32, 256)> : !torch.vtensor<[?,256],f16>
    %int1_520 = torch.constant.int 1
    %int256_521 = torch.constant.int 256
    %507 = torch.prim.ListConstruct %int1_520, %67, %int256_521 : (!torch.int, !torch.int, !torch.int) -> !torch.list<int>
    %508 = torch.aten.view %506, %507 : !torch.vtensor<[?,256],f16>, !torch.list<int> -> !torch.vtensor<[1,?,256],f16>
    torch.bind_symbolic_shape %508, [%63], affine_map<()[s0] -> (1, s0 * 32, 256)> : !torch.vtensor<[1,?,256],f16>
    %int5_522 = torch.constant.int 5
    %509 = torch.prims.convert_element_type %502, %int5_522 : !torch.vtensor<[11,256],f32>, !torch.int -> !torch.vtensor<[11,256],f16>
    %int11_523 = torch.constant.int 11
    %510 = torch.prim.ListConstruct %67, %int11_523 : (!torch.int, !torch.int) -> !torch.list<int>
    %511 = torch.aten.view %498, %510 : !torch.vtensor<[1,?,11],f16>, !torch.list<int> -> !torch.vtensor<[?,11],f16>
    torch.bind_symbolic_shape %511, [%63], affine_map<()[s0] -> (s0 * 32, 11)> : !torch.vtensor<[?,11],f16>
    %512 = torch.aten.mm %511, %509 : !torch.vtensor<[?,11],f16>, !torch.vtensor<[11,256],f16> -> !torch.vtensor<[?,256],f16>
    torch.bind_symbolic_shape %512, [%63], affine_map<()[s0] -> (s0 * 32, 256)> : !torch.vtensor<[?,256],f16>
    %int1_524 = torch.constant.int 1
    %int256_525 = torch.constant.int 256
    %513 = torch.prim.ListConstruct %int1_524, %67, %int256_525 : (!torch.int, !torch.int, !torch.int) -> !torch.list<int>
    %514 = torch.aten.view %512, %513 : !torch.vtensor<[?,256],f16>, !torch.list<int> -> !torch.vtensor<[1,?,256],f16>
    torch.bind_symbolic_shape %514, [%63], affine_map<()[s0] -> (1, s0 * 32, 256)> : !torch.vtensor<[1,?,256],f16>
    %515 = torch_c.to_builtin_tensor %508 : !torch.vtensor<[1,?,256],f16> -> tensor<1x?x256xf16>
    %c1_526 = arith.constant 1 : index
    %dim_527 = tensor.dim %515, %c1_526 : tensor<1x?x256xf16>
    %516 = flow.tensor.barrier %515 : tensor<1x?x256xf16>{%dim_527} on #hal.device.promise<@__device_0>
    %517 = torch_c.from_builtin_tensor %516 : tensor<1x?x256xf16> -> !torch.vtensor<[1,?,256],f16>
    torch.bind_symbolic_shape %517, [%63], affine_map<()[s0] -> (1, s0 * 32, 256)> : !torch.vtensor<[1,?,256],f16>
    %518 = torch_c.to_builtin_tensor %514 : !torch.vtensor<[1,?,256],f16> -> tensor<1x?x256xf16>
    %c1_528 = arith.constant 1 : index
    %dim_529 = tensor.dim %518, %c1_528 : tensor<1x?x256xf16>
    %519 = flow.tensor.transfer %518 : tensor<1x?x256xf16>{%dim_529} to #hal.device.promise<@__device_0>
    %520 = torch_c.from_builtin_tensor %519 : tensor<1x?x256xf16> -> !torch.vtensor<[1,?,256],f16>
    torch.bind_symbolic_shape %520, [%63], affine_map<()[s0] -> (1, s0 * 32, 256)> : !torch.vtensor<[1,?,256],f16>
    %int1_530 = torch.constant.int 1
    %521 = torch.aten.add.Tensor %517, %520, %int1_530 : !torch.vtensor<[1,?,256],f16>, !torch.vtensor<[1,?,256],f16>, !torch.int -> !torch.vtensor<[1,?,256],f16>
    torch.bind_symbolic_shape %521, [%63], affine_map<()[s0] -> (1, s0 * 32, 256)> : !torch.vtensor<[1,?,256],f16>
    %522 = torch_c.to_builtin_tensor %521 : !torch.vtensor<[1,?,256],f16> -> tensor<1x?x256xf16>
    %c1_531 = arith.constant 1 : index
    %dim_532 = tensor.dim %522, %c1_531 : tensor<1x?x256xf16>
    %523 = flow.tensor.barrier %522 : tensor<1x?x256xf16>{%dim_532} on #hal.device.promise<@__device_0>
    %524 = torch_c.from_builtin_tensor %523 : tensor<1x?x256xf16> -> !torch.vtensor<[1,?,256],f16>
    torch.bind_symbolic_shape %524, [%63], affine_map<()[s0] -> (1, s0 * 32, 256)> : !torch.vtensor<[1,?,256],f16>
    %525 = torch_c.to_builtin_tensor %521 : !torch.vtensor<[1,?,256],f16> -> tensor<1x?x256xf16>
    %c1_533 = arith.constant 1 : index
    %dim_534 = tensor.dim %525, %c1_533 : tensor<1x?x256xf16>
    %526 = flow.tensor.transfer %525 : tensor<1x?x256xf16>{%dim_534} to #hal.device.promise<@__device_1>
    %527 = torch_c.from_builtin_tensor %526 : tensor<1x?x256xf16> -> !torch.vtensor<[1,?,256],f16>
    torch.bind_symbolic_shape %527, [%63], affine_map<()[s0] -> (1, s0 * 32, 256)> : !torch.vtensor<[1,?,256],f16>
    %int1_535 = torch.constant.int 1
    %528 = torch.aten.add.Tensor %441, %524, %int1_535 : !torch.vtensor<[1,?,256],f16>, !torch.vtensor<[1,?,256],f16>, !torch.int -> !torch.vtensor<[1,?,256],f16>
    torch.bind_symbolic_shape %528, [%63], affine_map<()[s0] -> (1, s0 * 32, 256)> : !torch.vtensor<[1,?,256],f16>
    %int1_536 = torch.constant.int 1
    %529 = torch.aten.add.Tensor %442, %527, %int1_536 : !torch.vtensor<[1,?,256],f16>, !torch.vtensor<[1,?,256],f16>, !torch.int -> !torch.vtensor<[1,?,256],f16>
    torch.bind_symbolic_shape %529, [%63], affine_map<()[s0] -> (1, s0 * 32, 256)> : !torch.vtensor<[1,?,256],f16>
    %int6_537 = torch.constant.int 6
    %530 = torch.prims.convert_element_type %528, %int6_537 : !torch.vtensor<[1,?,256],f16>, !torch.int -> !torch.vtensor<[1,?,256],f32>
    torch.bind_symbolic_shape %530, [%63], affine_map<()[s0] -> (1, s0 * 32, 256)> : !torch.vtensor<[1,?,256],f32>
    %int6_538 = torch.constant.int 6
    %531 = torch.prims.convert_element_type %529, %int6_538 : !torch.vtensor<[1,?,256],f16>, !torch.int -> !torch.vtensor<[1,?,256],f32>
    torch.bind_symbolic_shape %531, [%63], affine_map<()[s0] -> (1, s0 * 32, 256)> : !torch.vtensor<[1,?,256],f32>
    %int2_539 = torch.constant.int 2
    %532 = torch.aten.pow.Tensor_Scalar %530, %int2_539 : !torch.vtensor<[1,?,256],f32>, !torch.int -> !torch.vtensor<[1,?,256],f32>
    torch.bind_symbolic_shape %532, [%63], affine_map<()[s0] -> (1, s0 * 32, 256)> : !torch.vtensor<[1,?,256],f32>
    %int2_540 = torch.constant.int 2
    %533 = torch.aten.pow.Tensor_Scalar %531, %int2_540 : !torch.vtensor<[1,?,256],f32>, !torch.int -> !torch.vtensor<[1,?,256],f32>
    torch.bind_symbolic_shape %533, [%63], affine_map<()[s0] -> (1, s0 * 32, 256)> : !torch.vtensor<[1,?,256],f32>
    %int-1_541 = torch.constant.int -1
    %534 = torch.prim.ListConstruct %int-1_541 : (!torch.int) -> !torch.list<int>
    %true_542 = torch.constant.bool true
    %none_543 = torch.constant.none
    %535 = torch.aten.mean.dim %532, %534, %true_542, %none_543 : !torch.vtensor<[1,?,256],f32>, !torch.list<int>, !torch.bool, !torch.none -> !torch.vtensor<[1,?,1],f32>
    torch.bind_symbolic_shape %535, [%63], affine_map<()[s0] -> (1, s0 * 32, 1)> : !torch.vtensor<[1,?,1],f32>
    %int-1_544 = torch.constant.int -1
    %536 = torch.prim.ListConstruct %int-1_544 : (!torch.int) -> !torch.list<int>
    %true_545 = torch.constant.bool true
    %none_546 = torch.constant.none
    %537 = torch.aten.mean.dim %533, %536, %true_545, %none_546 : !torch.vtensor<[1,?,256],f32>, !torch.list<int>, !torch.bool, !torch.none -> !torch.vtensor<[1,?,1],f32>
    torch.bind_symbolic_shape %537, [%63], affine_map<()[s0] -> (1, s0 * 32, 1)> : !torch.vtensor<[1,?,1],f32>
    %float1.000000e-02_547 = torch.constant.float 1.000000e-02
    %int1_548 = torch.constant.int 1
    %538 = torch.aten.add.Scalar %535, %float1.000000e-02_547, %int1_548 : !torch.vtensor<[1,?,1],f32>, !torch.float, !torch.int -> !torch.vtensor<[1,?,1],f32>
    torch.bind_symbolic_shape %538, [%63], affine_map<()[s0] -> (1, s0 * 32, 1)> : !torch.vtensor<[1,?,1],f32>
    %float1.000000e-02_549 = torch.constant.float 1.000000e-02
    %int1_550 = torch.constant.int 1
    %539 = torch.aten.add.Scalar %537, %float1.000000e-02_549, %int1_550 : !torch.vtensor<[1,?,1],f32>, !torch.float, !torch.int -> !torch.vtensor<[1,?,1],f32>
    torch.bind_symbolic_shape %539, [%63], affine_map<()[s0] -> (1, s0 * 32, 1)> : !torch.vtensor<[1,?,1],f32>
    %540 = torch.aten.rsqrt %538 : !torch.vtensor<[1,?,1],f32> -> !torch.vtensor<[1,?,1],f32>
    torch.bind_symbolic_shape %540, [%63], affine_map<()[s0] -> (1, s0 * 32, 1)> : !torch.vtensor<[1,?,1],f32>
    %541 = torch.aten.rsqrt %539 : !torch.vtensor<[1,?,1],f32> -> !torch.vtensor<[1,?,1],f32>
    torch.bind_symbolic_shape %541, [%63], affine_map<()[s0] -> (1, s0 * 32, 1)> : !torch.vtensor<[1,?,1],f32>
    %542 = torch.aten.mul.Tensor %530, %540 : !torch.vtensor<[1,?,256],f32>, !torch.vtensor<[1,?,1],f32> -> !torch.vtensor<[1,?,256],f32>
    torch.bind_symbolic_shape %542, [%63], affine_map<()[s0] -> (1, s0 * 32, 256)> : !torch.vtensor<[1,?,256],f32>
    %543 = torch.aten.mul.Tensor %531, %541 : !torch.vtensor<[1,?,256],f32>, !torch.vtensor<[1,?,1],f32> -> !torch.vtensor<[1,?,256],f32>
    torch.bind_symbolic_shape %543, [%63], affine_map<()[s0] -> (1, s0 * 32, 256)> : !torch.vtensor<[1,?,256],f32>
    %int5_551 = torch.constant.int 5
    %544 = torch.prims.convert_element_type %542, %int5_551 : !torch.vtensor<[1,?,256],f32>, !torch.int -> !torch.vtensor<[1,?,256],f16>
    torch.bind_symbolic_shape %544, [%63], affine_map<()[s0] -> (1, s0 * 32, 256)> : !torch.vtensor<[1,?,256],f16>
    %int5_552 = torch.constant.int 5
    %545 = torch.prims.convert_element_type %543, %int5_552 : !torch.vtensor<[1,?,256],f32>, !torch.int -> !torch.vtensor<[1,?,256],f16>
    torch.bind_symbolic_shape %545, [%63], affine_map<()[s0] -> (1, s0 * 32, 256)> : !torch.vtensor<[1,?,256],f16>
    %546 = torch.aten.mul.Tensor %20, %544 : !torch.vtensor<[256],f32>, !torch.vtensor<[1,?,256],f16> -> !torch.vtensor<[1,?,256],f32>
    torch.bind_symbolic_shape %546, [%63], affine_map<()[s0] -> (1, s0 * 32, 256)> : !torch.vtensor<[1,?,256],f32>
    %547 = torch.aten.mul.Tensor %21, %545 : !torch.vtensor<[256],f32>, !torch.vtensor<[1,?,256],f16> -> !torch.vtensor<[1,?,256],f32>
    torch.bind_symbolic_shape %547, [%63], affine_map<()[s0] -> (1, s0 * 32, 256)> : !torch.vtensor<[1,?,256],f32>
    %int5_553 = torch.constant.int 5
    %548 = torch.prims.convert_element_type %546, %int5_553 : !torch.vtensor<[1,?,256],f32>, !torch.int -> !torch.vtensor<[1,?,256],f16>
    torch.bind_symbolic_shape %548, [%63], affine_map<()[s0] -> (1, s0 * 32, 256)> : !torch.vtensor<[1,?,256],f16>
    %int5_554 = torch.constant.int 5
    %549 = torch.prims.convert_element_type %547, %int5_554 : !torch.vtensor<[1,?,256],f32>, !torch.int -> !torch.vtensor<[1,?,256],f16>
    torch.bind_symbolic_shape %549, [%63], affine_map<()[s0] -> (1, s0 * 32, 256)> : !torch.vtensor<[1,?,256],f16>
    %int1_555 = torch.constant.int 1
    %int0_556 = torch.constant.int 0
    %550 = torch.prim.ListConstruct %int1_555, %int0_556 : (!torch.int, !torch.int) -> !torch.list<int>
    %551 = torch.aten.permute %22, %550 : !torch.vtensor<[128,256],f32>, !torch.list<int> -> !torch.vtensor<[256,128],f32>
    %int1_557 = torch.constant.int 1
    %int0_558 = torch.constant.int 0
    %552 = torch.prim.ListConstruct %int1_557, %int0_558 : (!torch.int, !torch.int) -> !torch.list<int>
    %553 = torch.aten.permute %23, %552 : !torch.vtensor<[128,256],f32>, !torch.list<int> -> !torch.vtensor<[256,128],f32>
    %int5_559 = torch.constant.int 5
    %554 = torch.prims.convert_element_type %551, %int5_559 : !torch.vtensor<[256,128],f32>, !torch.int -> !torch.vtensor<[256,128],f16>
    %int256_560 = torch.constant.int 256
    %555 = torch.prim.ListConstruct %67, %int256_560 : (!torch.int, !torch.int) -> !torch.list<int>
    %556 = torch.aten.view %548, %555 : !torch.vtensor<[1,?,256],f16>, !torch.list<int> -> !torch.vtensor<[?,256],f16>
    torch.bind_symbolic_shape %556, [%63], affine_map<()[s0] -> (s0 * 32, 256)> : !torch.vtensor<[?,256],f16>
    %557 = torch.aten.mm %556, %554 : !torch.vtensor<[?,256],f16>, !torch.vtensor<[256,128],f16> -> !torch.vtensor<[?,128],f16>
    torch.bind_symbolic_shape %557, [%63], affine_map<()[s0] -> (s0 * 32, 128)> : !torch.vtensor<[?,128],f16>
    %int1_561 = torch.constant.int 1
    %int128_562 = torch.constant.int 128
    %558 = torch.prim.ListConstruct %int1_561, %67, %int128_562 : (!torch.int, !torch.int, !torch.int) -> !torch.list<int>
    %559 = torch.aten.view %557, %558 : !torch.vtensor<[?,128],f16>, !torch.list<int> -> !torch.vtensor<[1,?,128],f16>
    torch.bind_symbolic_shape %559, [%63], affine_map<()[s0] -> (1, s0 * 32, 128)> : !torch.vtensor<[1,?,128],f16>
    %int5_563 = torch.constant.int 5
    %560 = torch.prims.convert_element_type %553, %int5_563 : !torch.vtensor<[256,128],f32>, !torch.int -> !torch.vtensor<[256,128],f16>
    %int256_564 = torch.constant.int 256
    %561 = torch.prim.ListConstruct %67, %int256_564 : (!torch.int, !torch.int) -> !torch.list<int>
    %562 = torch.aten.view %549, %561 : !torch.vtensor<[1,?,256],f16>, !torch.list<int> -> !torch.vtensor<[?,256],f16>
    torch.bind_symbolic_shape %562, [%63], affine_map<()[s0] -> (s0 * 32, 256)> : !torch.vtensor<[?,256],f16>
    %563 = torch.aten.mm %562, %560 : !torch.vtensor<[?,256],f16>, !torch.vtensor<[256,128],f16> -> !torch.vtensor<[?,128],f16>
    torch.bind_symbolic_shape %563, [%63], affine_map<()[s0] -> (s0 * 32, 128)> : !torch.vtensor<[?,128],f16>
    %int1_565 = torch.constant.int 1
    %int128_566 = torch.constant.int 128
    %564 = torch.prim.ListConstruct %int1_565, %67, %int128_566 : (!torch.int, !torch.int, !torch.int) -> !torch.list<int>
    %565 = torch.aten.view %563, %564 : !torch.vtensor<[?,128],f16>, !torch.list<int> -> !torch.vtensor<[1,?,128],f16>
    torch.bind_symbolic_shape %565, [%63], affine_map<()[s0] -> (1, s0 * 32, 128)> : !torch.vtensor<[1,?,128],f16>
    %int1_567 = torch.constant.int 1
    %int0_568 = torch.constant.int 0
    %566 = torch.prim.ListConstruct %int1_567, %int0_568 : (!torch.int, !torch.int) -> !torch.list<int>
    %567 = torch.aten.permute %24, %566 : !torch.vtensor<[64,256],f32>, !torch.list<int> -> !torch.vtensor<[256,64],f32>
    %int1_569 = torch.constant.int 1
    %int0_570 = torch.constant.int 0
    %568 = torch.prim.ListConstruct %int1_569, %int0_570 : (!torch.int, !torch.int) -> !torch.list<int>
    %569 = torch.aten.permute %25, %568 : !torch.vtensor<[64,256],f32>, !torch.list<int> -> !torch.vtensor<[256,64],f32>
    %int5_571 = torch.constant.int 5
    %570 = torch.prims.convert_element_type %567, %int5_571 : !torch.vtensor<[256,64],f32>, !torch.int -> !torch.vtensor<[256,64],f16>
    %int256_572 = torch.constant.int 256
    %571 = torch.prim.ListConstruct %67, %int256_572 : (!torch.int, !torch.int) -> !torch.list<int>
    %572 = torch.aten.view %548, %571 : !torch.vtensor<[1,?,256],f16>, !torch.list<int> -> !torch.vtensor<[?,256],f16>
    torch.bind_symbolic_shape %572, [%63], affine_map<()[s0] -> (s0 * 32, 256)> : !torch.vtensor<[?,256],f16>
    %573 = torch.aten.mm %572, %570 : !torch.vtensor<[?,256],f16>, !torch.vtensor<[256,64],f16> -> !torch.vtensor<[?,64],f16>
    torch.bind_symbolic_shape %573, [%63], affine_map<()[s0] -> (s0 * 32, 64)> : !torch.vtensor<[?,64],f16>
    %int1_573 = torch.constant.int 1
    %int64_574 = torch.constant.int 64
    %574 = torch.prim.ListConstruct %int1_573, %67, %int64_574 : (!torch.int, !torch.int, !torch.int) -> !torch.list<int>
    %575 = torch.aten.view %573, %574 : !torch.vtensor<[?,64],f16>, !torch.list<int> -> !torch.vtensor<[1,?,64],f16>
    torch.bind_symbolic_shape %575, [%63], affine_map<()[s0] -> (1, s0 * 32, 64)> : !torch.vtensor<[1,?,64],f16>
    %int5_575 = torch.constant.int 5
    %576 = torch.prims.convert_element_type %569, %int5_575 : !torch.vtensor<[256,64],f32>, !torch.int -> !torch.vtensor<[256,64],f16>
    %int256_576 = torch.constant.int 256
    %577 = torch.prim.ListConstruct %67, %int256_576 : (!torch.int, !torch.int) -> !torch.list<int>
    %578 = torch.aten.view %549, %577 : !torch.vtensor<[1,?,256],f16>, !torch.list<int> -> !torch.vtensor<[?,256],f16>
    torch.bind_symbolic_shape %578, [%63], affine_map<()[s0] -> (s0 * 32, 256)> : !torch.vtensor<[?,256],f16>
    %579 = torch.aten.mm %578, %576 : !torch.vtensor<[?,256],f16>, !torch.vtensor<[256,64],f16> -> !torch.vtensor<[?,64],f16>
…
    %1383 = torch.aten._unsafe_view %1381, %1382 : !torch.vtensor<[1,?,32,2,32],f16>, !torch.list<int> -> !torch.vtensor<[1,?,2,32],f16>
    torch.bind_symbolic_shape %1383, [%74], affine_map<()[s0] -> (1, s0 * 32, 2, 32)> : !torch.vtensor<[1,?,2,32],f16>
    %int0_1525 = torch.constant.int 0
    %1384 = torch.aten.clone %1380, %int0_1525 : !torch.vtensor<[1,?,32,2,32],f16>, !torch.int -> !torch.vtensor<[1,?,32,2,32],f16>
    torch.bind_symbolic_shape %1384, [%74], affine_map<()[s0] -> (1, s0, 32, 2, 32)> : !torch.vtensor<[1,?,32,2,32],f16>
    %int1_1526 = torch.constant.int 1
    %int2_1527 = torch.constant.int 2
    %int32_1528 = torch.constant.int 32
    %1385 = torch.prim.ListConstruct %int1_1526, %78, %int2_1527, %int32_1528 : (!torch.int, !torch.int, !torch.int, !torch.int) -> !torch.list<int>
    %1386 = torch.aten._unsafe_view %1384, %1385 : !torch.vtensor<[1,?,32,2,32],f16>, !torch.list<int> -> !torch.vtensor<[1,?,2,32],f16>
    torch.bind_symbolic_shape %1386, [%74], affine_map<()[s0] -> (1, s0 * 32, 2, 32)> : !torch.vtensor<[1,?,2,32],f16>
    %int0_1529 = torch.constant.int 0
    %int0_1530 = torch.constant.int 0
    %int9223372036854775807_1531 = torch.constant.int 9223372036854775807
    %int1_1532 = torch.constant.int 1
    %1387 = torch.aten.slice.Tensor %1383, %int0_1529, %int0_1530, %int9223372036854775807_1531, %int1_1532 : !torch.vtensor<[1,?,2,32],f16>, !torch.int, !torch.int, !torch.int, !torch.int -> !torch.vtensor<[1,?,2,32],f16>
    torch.bind_symbolic_shape %1387, [%74], affine_map<()[s0] -> (1, s0 * 32, 2, 32)> : !torch.vtensor<[1,?,2,32],f16>
    %int0_1533 = torch.constant.int 0
    %int0_1534 = torch.constant.int 0
    %int9223372036854775807_1535 = torch.constant.int 9223372036854775807
    %int1_1536 = torch.constant.int 1
    %1388 = torch.aten.slice.Tensor %1386, %int0_1533, %int0_1534, %int9223372036854775807_1535, %int1_1536 : !torch.vtensor<[1,?,2,32],f16>, !torch.int, !torch.int, !torch.int, !torch.int -> !torch.vtensor<[1,?,2,32],f16>
    torch.bind_symbolic_shape %1388, [%74], affine_map<()[s0] -> (1, s0 * 32, 2, 32)> : !torch.vtensor<[1,?,2,32],f16>
    %int-2_1537 = torch.constant.int -2
    %1389 = torch.aten.unsqueeze %1371, %int-2_1537 : !torch.vtensor<[1,?,2,32],f16>, !torch.int -> !torch.vtensor<[1,?,2,1,32],f16>
    torch.bind_symbolic_shape %1389, [%74], affine_map<()[s0] -> (1, s0 * 32, 2, 1, 32)> : !torch.vtensor<[1,?,2,1,32],f16>
    %int-2_1538 = torch.constant.int -2
    %1390 = torch.aten.unsqueeze %1372, %int-2_1538 : !torch.vtensor<[1,?,2,32],f16>, !torch.int -> !torch.vtensor<[1,?,2,1,32],f16>
    torch.bind_symbolic_shape %1390, [%74], affine_map<()[s0] -> (1, s0 * 32, 2, 1, 32)> : !torch.vtensor<[1,?,2,1,32],f16>
    %int1_1539 = torch.constant.int 1
    %int2_1540 = torch.constant.int 2
    %int2_1541 = torch.constant.int 2
    %int32_1542 = torch.constant.int 32
    %1391 = torch.prim.ListConstruct %int1_1539, %78, %int2_1540, %int2_1541, %int32_1542 : (!torch.int, !torch.int, !torch.int, !torch.int, !torch.int) -> !torch.list<int>
    %false_1543 = torch.constant.bool false
    %1392 = torch.aten.expand %1389, %1391, %false_1543 : !torch.vtensor<[1,?,2,1,32],f16>, !torch.list<int>, !torch.bool -> !torch.vtensor<[1,?,2,2,32],f16>
    torch.bind_symbolic_shape %1392, [%74], affine_map<()[s0] -> (1, s0 * 32, 2, 2, 32)> : !torch.vtensor<[1,?,2,2,32],f16>
    %int1_1544 = torch.constant.int 1
    %int2_1545 = torch.constant.int 2
    %int2_1546 = torch.constant.int 2
    %int32_1547 = torch.constant.int 32
    %1393 = torch.prim.ListConstruct %int1_1544, %78, %int2_1545, %int2_1546, %int32_1547 : (!torch.int, !torch.int, !torch.int, !torch.int, !torch.int) -> !torch.list<int>
    %false_1548 = torch.constant.bool false
    %1394 = torch.aten.expand %1390, %1393, %false_1548 : !torch.vtensor<[1,?,2,1,32],f16>, !torch.list<int>, !torch.bool -> !torch.vtensor<[1,?,2,2,32],f16>
    torch.bind_symbolic_shape %1394, [%74], affine_map<()[s0] -> (1, s0 * 32, 2, 2, 32)> : !torch.vtensor<[1,?,2,2,32],f16>
    %int0_1549 = torch.constant.int 0
    %1395 = torch.aten.clone %1392, %int0_1549 : !torch.vtensor<[1,?,2,2,32],f16>, !torch.int -> !torch.vtensor<[1,?,2,2,32],f16>
    torch.bind_symbolic_shape %1395, [%74], affine_map<()[s0] -> (1, s0 * 32, 2, 2, 32)> : !torch.vtensor<[1,?,2,2,32],f16>
    %int1_1550 = torch.constant.int 1
    %int4_1551 = torch.constant.int 4
    %int32_1552 = torch.constant.int 32
    %1396 = torch.prim.ListConstruct %int1_1550, %78, %int4_1551, %int32_1552 : (!torch.int, !torch.int, !torch.int, !torch.int) -> !torch.list<int>
    %1397 = torch.aten._unsafe_view %1395, %1396 : !torch.vtensor<[1,?,2,2,32],f16>, !torch.list<int> -> !torch.vtensor<[1,?,4,32],f16>
    torch.bind_symbolic_shape %1397, [%74], affine_map<()[s0] -> (1, s0 * 32, 4, 32)> : !torch.vtensor<[1,?,4,32],f16>
    %int0_1553 = torch.constant.int 0
    %1398 = torch.aten.clone %1394, %int0_1553 : !torch.vtensor<[1,?,2,2,32],f16>, !torch.int -> !torch.vtensor<[1,?,2,2,32],f16>
    torch.bind_symbolic_shape %1398, [%74], affine_map<()[s0] -> (1, s0 * 32, 2, 2, 32)> : !torch.vtensor<[1,?,2,2,32],f16>
    %int1_1554 = torch.constant.int 1
    %int4_1555 = torch.constant.int 4
    %int32_1556 = torch.constant.int 32
    %1399 = torch.prim.ListConstruct %int1_1554, %78, %int4_1555, %int32_1556 : (!torch.int, !torch.int, !torch.int, !torch.int) -> !torch.list<int>
    %1400 = torch.aten._unsafe_view %1398, %1399 : !torch.vtensor<[1,?,2,2,32],f16>, !torch.list<int> -> !torch.vtensor<[1,?,4,32],f16>
    torch.bind_symbolic_shape %1400, [%74], affine_map<()[s0] -> (1, s0 * 32, 4, 32)> : !torch.vtensor<[1,?,4,32],f16>
    %int-2_1557 = torch.constant.int -2
    %1401 = torch.aten.unsqueeze %1387, %int-2_1557 : !torch.vtensor<[1,?,2,32],f16>, !torch.int -> !torch.vtensor<[1,?,2,1,32],f16>
    torch.bind_symbolic_shape %1401, [%74], affine_map<()[s0] -> (1, s0 * 32, 2, 1, 32)> : !torch.vtensor<[1,?,2,1,32],f16>
    %int-2_1558 = torch.constant.int -2
    %1402 = torch.aten.unsqueeze %1388, %int-2_1558 : !torch.vtensor<[1,?,2,32],f16>, !torch.int -> !torch.vtensor<[1,?,2,1,32],f16>
    torch.bind_symbolic_shape %1402, [%74], affine_map<()[s0] -> (1, s0 * 32, 2, 1, 32)> : !torch.vtensor<[1,?,2,1,32],f16>
    %int1_1559 = torch.constant.int 1
    %int2_1560 = torch.constant.int 2
    %int2_1561 = torch.constant.int 2
    %int32_1562 = torch.constant.int 32
    %1403 = torch.prim.ListConstruct %int1_1559, %78, %int2_1560, %int2_1561, %int32_1562 : (!torch.int, !torch.int, !torch.int, !torch.int, !torch.int) -> !torch.list<int>
    %false_1563 = torch.constant.bool false
    %1404 = torch.aten.expand %1401, %1403, %false_1563 : !torch.vtensor<[1,?,2,1,32],f16>, !torch.list<int>, !torch.bool -> !torch.vtensor<[1,?,2,2,32],f16>
    torch.bind_symbolic_shape %1404, [%74], affine_map<()[s0] -> (1, s0 * 32, 2, 2, 32)> : !torch.vtensor<[1,?,2,2,32],f16>
    %int1_1564 = torch.constant.int 1
    %int2_1565 = torch.constant.int 2
    %int2_1566 = torch.constant.int 2
    %int32_1567 = torch.constant.int 32
    %1405 = torch.prim.ListConstruct %int1_1564, %78, %int2_1565, %int2_1566, %int32_1567 : (!torch.int, !torch.int, !torch.int, !torch.int, !torch.int) -> !torch.list<int>
    %false_1568 = torch.constant.bool false
    %1406 = torch.aten.expand %1402, %1405, %false_1568 : !torch.vtensor<[1,?,2,1,32],f16>, !torch.list<int>, !torch.bool -> !torch.vtensor<[1,?,2,2,32],f16>
    torch.bind_symbolic_shape %1406, [%74], affine_map<()[s0] -> (1, s0 * 32, 2, 2, 32)> : !torch.vtensor<[1,?,2,2,32],f16>
    %int0_1569 = torch.constant.int 0
    %1407 = torch.aten.clone %1404, %int0_1569 : !torch.vtensor<[1,?,2,2,32],f16>, !torch.int -> !torch.vtensor<[1,?,2,2,32],f16>
    torch.bind_symbolic_shape %1407, [%74], affine_map<()[s0] -> (1, s0 * 32, 2, 2, 32)> : !torch.vtensor<[1,?,2,2,32],f16>
    %int1_1570 = torch.constant.int 1
    %int4_1571 = torch.constant.int 4
    %int32_1572 = torch.constant.int 32
    %1408 = torch.prim.ListConstruct %int1_1570, %78, %int4_1571, %int32_1572 : (!torch.int, !torch.int, !torch.int, !torch.int) -> !torch.list<int>
    %1409 = torch.aten._unsafe_view %1407, %1408 : !torch.vtensor<[1,?,2,2,32],f16>, !torch.list<int> -> !torch.vtensor<[1,?,4,32],f16>
    torch.bind_symbolic_shape %1409, [%74], affine_map<()[s0] -> (1, s0 * 32, 4, 32)> : !torch.vtensor<[1,?,4,32],f16>
    %int0_1573 = torch.constant.int 0
    %1410 = torch.aten.clone %1406, %int0_1573 : !torch.vtensor<[1,?,2,2,32],f16>, !torch.int -> !torch.vtensor<[1,?,2,2,32],f16>
    torch.bind_symbolic_shape %1410, [%74], affine_map<()[s0] -> (1, s0 * 32, 2, 2, 32)> : !torch.vtensor<[1,?,2,2,32],f16>
    %int1_1574 = torch.constant.int 1
    %int4_1575 = torch.constant.int 4
    %int32_1576 = torch.constant.int 32
    %1411 = torch.prim.ListConstruct %int1_1574, %78, %int4_1575, %int32_1576 : (!torch.int, !torch.int, !torch.int, !torch.int) -> !torch.list<int>
    %1412 = torch.aten._unsafe_view %1410, %1411 : !torch.vtensor<[1,?,2,2,32],f16>, !torch.list<int> -> !torch.vtensor<[1,?,4,32],f16>
    torch.bind_symbolic_shape %1412, [%74], affine_map<()[s0] -> (1, s0 * 32, 4, 32)> : !torch.vtensor<[1,?,4,32],f16>
    %int1_1577 = torch.constant.int 1
    %int2_1578 = torch.constant.int 2
    %1413 = torch.aten.transpose.int %1174, %int1_1577, %int2_1578 : !torch.vtensor<[1,1,4,32],f16>, !torch.int, !torch.int -> !torch.vtensor<[1,4,1,32],f16>
    %int1_1579 = torch.constant.int 1
    %int2_1580 = torch.constant.int 2
    %1414 = torch.aten.transpose.int %1180, %int1_1579, %int2_1580 : !torch.vtensor<[1,1,4,32],f16>, !torch.int, !torch.int -> !torch.vtensor<[1,4,1,32],f16>
    %int1_1581 = torch.constant.int 1
    %int2_1582 = torch.constant.int 2
    %1415 = torch.aten.transpose.int %1397, %int1_1581, %int2_1582 : !torch.vtensor<[1,?,4,32],f16>, !torch.int, !torch.int -> !torch.vtensor<[1,4,?,32],f16>
    torch.bind_symbolic_shape %1415, [%74], affine_map<()[s0] -> (1, 4, s0 * 32, 32)> : !torch.vtensor<[1,4,?,32],f16>
    %int1_1583 = torch.constant.int 1
    %int2_1584 = torch.constant.int 2
    %1416 = torch.aten.transpose.int %1400, %int1_1583, %int2_1584 : !torch.vtensor<[1,?,4,32],f16>, !torch.int, !torch.int -> !torch.vtensor<[1,4,?,32],f16>
    torch.bind_symbolic_shape %1416, [%74], affine_map<()[s0] -> (1, 4, s0 * 32, 32)> : !torch.vtensor<[1,4,?,32],f16>
    %int1_1585 = torch.constant.int 1
    %int2_1586 = torch.constant.int 2
    %1417 = torch.aten.transpose.int %1409, %int1_1585, %int2_1586 : !torch.vtensor<[1,?,4,32],f16>, !torch.int, !torch.int -> !torch.vtensor<[1,4,?,32],f16>
    torch.bind_symbolic_shape %1417, [%74], affine_map<()[s0] -> (1, 4, s0 * 32, 32)> : !torch.vtensor<[1,4,?,32],f16>
    %int1_1587 = torch.constant.int 1
    %int2_1588 = torch.constant.int 2
    %1418 = torch.aten.transpose.int %1412, %int1_1587, %int2_1588 : !torch.vtensor<[1,?,4,32],f16>, !torch.int, !torch.int -> !torch.vtensor<[1,4,?,32],f16>
    torch.bind_symbolic_shape %1418, [%74], affine_map<()[s0] -> (1, 4, s0 * 32, 32)> : !torch.vtensor<[1,4,?,32],f16>
    %int5_1589 = torch.constant.int 5
    %1419 = torch.prims.convert_element_type %1413, %int5_1589 : !torch.vtensor<[1,4,1,32],f16>, !torch.int -> !torch.vtensor<[1,4,1,32],f16>
    %int5_1590 = torch.constant.int 5
    %1420 = torch.prims.convert_element_type %1414, %int5_1590 : !torch.vtensor<[1,4,1,32],f16>, !torch.int -> !torch.vtensor<[1,4,1,32],f16>
    %int5_1591 = torch.constant.int 5
    %1421 = torch.prims.convert_element_type %1415, %int5_1591 : !torch.vtensor<[1,4,?,32],f16>, !torch.int -> !torch.vtensor<[1,4,?,32],f16>
    torch.bind_symbolic_shape %1421, [%74], affine_map<()[s0] -> (1, 4, s0 * 32, 32)> : !torch.vtensor<[1,4,?,32],f16>
    %int5_1592 = torch.constant.int 5
    %1422 = torch.prims.convert_element_type %1416, %int5_1592 : !torch.vtensor<[1,4,?,32],f16>, !torch.int -> !torch.vtensor<[1,4,?,32],f16>
    torch.bind_symbolic_shape %1422, [%74], affine_map<()[s0] -> (1, 4, s0 * 32, 32)> : !torch.vtensor<[1,4,?,32],f16>
    %int5_1593 = torch.constant.int 5
    %1423 = torch.prims.convert_element_type %1417, %int5_1593 : !torch.vtensor<[1,4,?,32],f16>, !torch.int -> !torch.vtensor<[1,4,?,32],f16>
    torch.bind_symbolic_shape %1423, [%74], affine_map<()[s0] -> (1, 4, s0 * 32, 32)> : !torch.vtensor<[1,4,?,32],f16>
    %int5_1594 = torch.constant.int 5
    %1424 = torch.prims.convert_element_type %1418, %int5_1594 : !torch.vtensor<[1,4,?,32],f16>, !torch.int -> !torch.vtensor<[1,4,?,32],f16>
    torch.bind_symbolic_shape %1424, [%74], affine_map<()[s0] -> (1, 4, s0 * 32, 32)> : !torch.vtensor<[1,4,?,32],f16>
    %int5_1595 = torch.constant.int 5
    %1425 = torch.prims.convert_element_type %97, %int5_1595 : !torch.vtensor<[1,1,1,?],f16>, !torch.int -> !torch.vtensor<[1,1,1,?],f16>
    torch.bind_symbolic_shape %1425, [%74], affine_map<()[s0] -> (1, 1, 1, s0 * 32)> : !torch.vtensor<[1,1,1,?],f16>
    %int5_1596 = torch.constant.int 5
    %1426 = torch.prims.convert_element_type %100, %int5_1596 : !torch.vtensor<[1,1,1,?],f16>, !torch.int -> !torch.vtensor<[1,1,1,?],f16>
    torch.bind_symbolic_shape %1426, [%74], affine_map<()[s0] -> (1, 1, 1, s0 * 32)> : !torch.vtensor<[1,1,1,?],f16>
    %float0.000000e00_1597 = torch.constant.float 0.000000e+00
    %false_1598 = torch.constant.bool false
    %none_1599 = torch.constant.none
    %1427:2 = torch.operator "torch.aten._scaled_dot_product_flash_attention_for_cpu"(%1419, %1421, %1423, %float0.000000e00_1597, %false_1598, %1425, %none_1599) : (!torch.vtensor<[1,4,1,32],f16>, !torch.vtensor<[1,4,?,32],f16>, !torch.vtensor<[1,4,?,32],f16>, !torch.float, !torch.bool, !torch.vtensor<[1,1,1,?],f16>, !torch.none) -> (!torch.vtensor<[1,4,1,32],f16>, !torch.vtensor<[1,4,1],f32>) 
    %float0.000000e00_1600 = torch.constant.float 0.000000e+00
    %false_1601 = torch.constant.bool false
    %none_1602 = torch.constant.none
    %1428:2 = torch.operator "torch.aten._scaled_dot_product_flash_attention_for_cpu"(%1420, %1422, %1424, %float0.000000e00_1600, %false_1601, %1426, %none_1602) : (!torch.vtensor<[1,4,1,32],f16>, !torch.vtensor<[1,4,?,32],f16>, !torch.vtensor<[1,4,?,32],f16>, !torch.float, !torch.bool, !torch.vtensor<[1,1,1,?],f16>, !torch.none) -> (!torch.vtensor<[1,4,1,32],f16>, !torch.vtensor<[1,4,1],f32>) 
    %int1_1603 = torch.constant.int 1
    %int2_1604 = torch.constant.int 2
    %1429 = torch.aten.transpose.int %1427#0, %int1_1603, %int2_1604 : !torch.vtensor<[1,4,1,32],f16>, !torch.int, !torch.int -> !torch.vtensor<[1,1,4,32],f16>
    %int1_1605 = torch.constant.int 1
    %int2_1606 = torch.constant.int 2
    %1430 = torch.aten.transpose.int %1428#0, %int1_1605, %int2_1606 : !torch.vtensor<[1,4,1,32],f16>, !torch.int, !torch.int -> !torch.vtensor<[1,1,4,32],f16>
    %int1_1607 = torch.constant.int 1
    %int1_1608 = torch.constant.int 1
    %int128_1609 = torch.constant.int 128
    %1431 = torch.prim.ListConstruct %int1_1607, %int1_1608, %int128_1609 : (!torch.int, !torch.int, !torch.int) -> !torch.list<int>
    %1432 = torch.aten.view %1429, %1431 : !torch.vtensor<[1,1,4,32],f16>, !torch.list<int> -> !torch.vtensor<[1,1,128],f16>
    %int1_1610 = torch.constant.int 1
    %int1_1611 = torch.constant.int 1
    %int128_1612 = torch.constant.int 128
    %1433 = torch.prim.ListConstruct %int1_1610, %int1_1611, %int128_1612 : (!torch.int, !torch.int, !torch.int) -> !torch.list<int>
    %1434 = torch.aten.view %1430, %1433 : !torch.vtensor<[1,1,4,32],f16>, !torch.list<int> -> !torch.vtensor<[1,1,128],f16>
    %int1_1613 = torch.constant.int 1
    %int0_1614 = torch.constant.int 0
    %1435 = torch.prim.ListConstruct %int1_1613, %int0_1614 : (!torch.int, !torch.int) -> !torch.list<int>
    %1436 = torch.aten.permute %58, %1435 : !torch.vtensor<[256,128],f32>, !torch.list<int> -> !torch.vtensor<[128,256],f32>
    %int1_1615 = torch.constant.int 1
    %int0_1616 = torch.constant.int 0
    %1437 = torch.prim.ListConstruct %int1_1615, %int0_1616 : (!torch.int, !torch.int) -> !torch.list<int>
    %1438 = torch.aten.permute %59, %1437 : !torch.vtensor<[256,128],f32>, !torch.list<int> -> !torch.vtensor<[128,256],f32>
    %int5_1617 = torch.constant.int 5
    %1439 = torch.prims.convert_element_type %1436, %int5_1617 : !torch.vtensor<[128,256],f32>, !torch.int -> !torch.vtensor<[128,256],f16>
    %int1_1618 = torch.constant.int 1
    %int128_1619 = torch.constant.int 128
    %1440 = torch.prim.ListConstruct %int1_1618, %int128_1619 : (!torch.int, !torch.int) -> !torch.list<int>
    %1441 = torch.aten.view %1432, %1440 : !torch.vtensor<[1,1,128],f16>, !torch.list<int> -> !torch.vtensor<[1,128],f16>
    %1442 = torch.aten.mm %1441, %1439 : !torch.vtensor<[1,128],f16>, !torch.vtensor<[128,256],f16> -> !torch.vtensor<[1,256],f16>
    %int1_1620 = torch.constant.int 1
    %int1_1621 = torch.constant.int 1
    %int256_1622 = torch.constant.int 256
    %1443 = torch.prim.ListConstruct %int1_1620, %int1_1621, %int256_1622 : (!torch.int, !torch.int, !torch.int) -> !torch.list<int>
    %1444 = torch.aten.view %1442, %1443 : !torch.vtensor<[1,256],f16>, !torch.list<int> -> !torch.vtensor<[1,1,256],f16>
    %int5_1623 = torch.constant.int 5
    %1445 = torch.prims.convert_element_type %1438, %int5_1623 : !torch.vtensor<[128,256],f32>, !torch.int -> !torch.vtensor<[128,256],f16>
    %int1_1624 = torch.constant.int 1
    %int128_1625 = torch.constant.int 128
    %1446 = torch.prim.ListConstruct %int1_1624, %int128_1625 : (!torch.int, !torch.int) -> !torch.list<int>
    %1447 = torch.aten.view %1434, %1446 : !torch.vtensor<[1,1,128],f16>, !torch.list<int> -> !torch.vtensor<[1,128],f16>
    %1448 = torch.aten.mm %1447, %1445 : !torch.vtensor<[1,128],f16>, !torch.vtensor<[128,256],f16> -> !torch.vtensor<[1,256],f16>
    %int1_1626 = torch.constant.int 1
    %int1_1627 = torch.constant.int 1
    %int256_1628 = torch.constant.int 256
    %1449 = torch.prim.ListConstruct %int1_1626, %int1_1627, %int256_1628 : (!torch.int, !torch.int, !torch.int) -> !torch.list<int>
    %1450 = torch.aten.view %1448, %1449 : !torch.vtensor<[1,256],f16>, !torch.list<int> -> !torch.vtensor<[1,1,256],f16>
    %1451 = torch_c.to_builtin_tensor %1444 : !torch.vtensor<[1,1,256],f16> -> tensor<1x1x256xf16>
    %1452 = flow.tensor.barrier %1451 : tensor<1x1x256xf16> on #hal.device.promise<@__device_0>
    %1453 = torch_c.from_builtin_tensor %1452 : tensor<1x1x256xf16> -> !torch.vtensor<[1,1,256],f16>
    %1454 = torch_c.to_builtin_tensor %1450 : !torch.vtensor<[1,1,256],f16> -> tensor<1x1x256xf16>
    %1455 = flow.tensor.transfer %1454 : tensor<1x1x256xf16> to #hal.device.promise<@__device_0>
    %1456 = torch_c.from_builtin_tensor %1455 : tensor<1x1x256xf16> -> !torch.vtensor<[1,1,256],f16>
    %int1_1629 = torch.constant.int 1
    %1457 = torch.aten.add.Tensor %1453, %1456, %int1_1629 : !torch.vtensor<[1,1,256],f16>, !torch.vtensor<[1,1,256],f16>, !torch.int -> !torch.vtensor<[1,1,256],f16>
    %1458 = torch_c.to_builtin_tensor %1457 : !torch.vtensor<[1,1,256],f16> -> tensor<1x1x256xf16>
    %1459 = flow.tensor.barrier %1458 : tensor<1x1x256xf16> on #hal.device.promise<@__device_0>
    %1460 = torch_c.from_builtin_tensor %1459 : tensor<1x1x256xf16> -> !torch.vtensor<[1,1,256],f16>
    %1461 = torch_c.to_builtin_tensor %1457 : !torch.vtensor<[1,1,256],f16> -> tensor<1x1x256xf16>
    %1462 = flow.tensor.transfer %1461 : tensor<1x1x256xf16> to #hal.device.promise<@__device_1>
    %1463 = torch_c.from_builtin_tensor %1462 : tensor<1x1x256xf16> -> !torch.vtensor<[1,1,256],f16>
    %int1_1630 = torch.constant.int 1
    %1464 = torch.aten.add.Tensor %1087, %1460, %int1_1630 : !torch.vtensor<[1,1,256],f16>, !torch.vtensor<[1,1,256],f16>, !torch.int -> !torch.vtensor<[1,1,256],f16>
    %int1_1631 = torch.constant.int 1
    %1465 = torch.aten.add.Tensor %1088, %1463, %int1_1631 : !torch.vtensor<[1,1,256],f16>, !torch.vtensor<[1,1,256],f16>, !torch.int -> !torch.vtensor<[1,1,256],f16>
    %int6_1632 = torch.constant.int 6
    %1466 = torch.prims.convert_element_type %1464, %int6_1632 : !torch.vtensor<[1,1,256],f16>, !torch.int -> !torch.vtensor<[1,1,256],f32>
    %int6_1633 = torch.constant.int 6
    %1467 = torch.prims.convert_element_type %1465, %int6_1633 : !torch.vtensor<[1,1,256],f16>, !torch.int -> !torch.vtensor<[1,1,256],f32>
    %int2_1634 = torch.constant.int 2
    %1468 = torch.aten.pow.Tensor_Scalar %1466, %int2_1634 : !torch.vtensor<[1,1,256],f32>, !torch.int -> !torch.vtensor<[1,1,256],f32>
    %int2_1635 = torch.constant.int 2
    %1469 = torch.aten.pow.Tensor_Scalar %1467, %int2_1635 : !torch.vtensor<[1,1,256],f32>, !torch.int -> !torch.vtensor<[1,1,256],f32>
    %int-1_1636 = torch.constant.int -1
    %1470 = torch.prim.ListConstruct %int-1_1636 : (!torch.int) -> !torch.list<int>
    %true_1637 = torch.constant.bool true
    %none_1638 = torch.constant.none
    %1471 = torch.aten.mean.dim %1468, %1470, %true_1637, %none_1638 : !torch.vtensor<[1,1,256],f32>, !torch.list<int>, !torch.bool, !torch.none -> !torch.vtensor<[1,1,1],f32>
    %int-1_1639 = torch.constant.int -1
    %1472 = torch.prim.ListConstruct %int-1_1639 : (!torch.int) -> !torch.list<int>
    %true_1640 = torch.constant.bool true
    %none_1641 = torch.constant.none
    %1473 = torch.aten.mean.dim %1469, %1472, %true_1640, %none_1641 : !torch.vtensor<[1,1,256],f32>, !torch.list<int>, !torch.bool, !torch.none -> !torch.vtensor<[1,1,1],f32>
    %float1.000000e-02_1642 = torch.constant.float 1.000000e-02
    %int1_1643 = torch.constant.int 1
    %1474 = torch.aten.add.Scalar %1471, %float1.000000e-02_1642, %int1_1643 : !torch.vtensor<[1,1,1],f32>, !torch.float, !torch.int -> !torch.vtensor<[1,1,1],f32>
    %float1.000000e-02_1644 = torch.constant.float 1.000000e-02
    %int1_1645 = torch.constant.int 1
    %1475 = torch.aten.add.Scalar %1473, %float1.000000e-02_1644, %int1_1645 : !torch.vtensor<[1,1,1],f32>, !torch.float, !torch.int -> !torch.vtensor<[1,1,1],f32>
    %1476 = torch.aten.rsqrt %1474 : !torch.vtensor<[1,1,1],f32> -> !torch.vtensor<[1,1,1],f32>
    %1477 = torch.aten.rsqrt %1475 : !torch.vtensor<[1,1,1],f32> -> !torch.vtensor<[1,1,1],f32>
    %1478 = torch.aten.mul.Tensor %1466, %1476 : !torch.vtensor<[1,1,256],f32>, !torch.vtensor<[1,1,1],f32> -> !torch.vtensor<[1,1,256],f32>
    %1479 = torch.aten.mul.Tensor %1467, %1477 : !torch.vtensor<[1,1,256],f32>, !torch.vtensor<[1,1,1],f32> -> !torch.vtensor<[1,1,256],f32>
    %int5_1646 = torch.constant.int 5
    %1480 = torch.prims.convert_element_type %1478, %int5_1646 : !torch.vtensor<[1,1,256],f32>, !torch.int -> !torch.vtensor<[1,1,256],f16>
    %int5_1647 = torch.constant.int 5
    %1481 = torch.prims.convert_element_type %1479, %int5_1647 : !torch.vtensor<[1,1,256],f32>, !torch.int -> !torch.vtensor<[1,1,256],f16>
    %1482 = torch.aten.mul.Tensor %60, %1480 : !torch.vtensor<[256],f32>, !torch.vtensor<[1,1,256],f16> -> !torch.vtensor<[1,1,256],f32>
    %1483 = torch.aten.mul.Tensor %61, %1481 : !torch.vtensor<[256],f32>, !torch.vtensor<[1,1,256],f16> -> !torch.vtensor<[1,1,256],f32>
    %int5_1648 = torch.constant.int 5
    %1484 = torch.prims.convert_element_type %1482, %int5_1648 : !torch.vtensor<[1,1,256],f32>, !torch.int -> !torch.vtensor<[1,1,256],f16>
    %int5_1649 = torch.constant.int 5
    %1485 = torch.prims.convert_element_type %1483, %int5_1649 : !torch.vtensor<[1,1,256],f32>, !torch.int -> !torch.vtensor<[1,1,256],f16>
    %int1_1650 = torch.constant.int 1
    %int0_1651 = torch.constant.int 0
    %1486 = torch.prim.ListConstruct %int1_1650, %int0_1651 : (!torch.int, !torch.int) -> !torch.list<int>
    %1487 = torch.aten.permute %62, %1486 : !torch.vtensor<[12,256],f32>, !torch.list<int> -> !torch.vtensor<[256,12],f32>
    %int1_1652 = torch.constant.int 1
    %int0_1653 = torch.constant.int 0
    %1488 = torch.prim.ListConstruct %int1_1652, %int0_1653 : (!torch.int, !torch.int) -> !torch.list<int>
    %1489 = torch.aten.permute %63, %1488 : !torch.vtensor<[11,256],f32>, !torch.list<int> -> !torch.vtensor<[256,11],f32>
    %int5_1654 = torch.constant.int 5
    %1490 = torch.prims.convert_element_type %1487, %int5_1654 : !torch.vtensor<[256,12],f32>, !torch.int -> !torch.vtensor<[256,12],f16>
    %int1_1655 = torch.constant.int 1
    %int256_1656 = torch.constant.int 256
    %1491 = torch.prim.ListConstruct %int1_1655, %int256_1656 : (!torch.int, !torch.int) -> !torch.list<int>
    %1492 = torch.aten.view %1484, %1491 : !torch.vtensor<[1,1,256],f16>, !torch.list<int> -> !torch.vtensor<[1,256],f16>
    %1493 = torch.aten.mm %1492, %1490 : !torch.vtensor<[1,256],f16>, !torch.vtensor<[256,12],f16> -> !torch.vtensor<[1,12],f16>
    %int1_1657 = torch.constant.int 1
    %int1_1658 = torch.constant.int 1
    %int12_1659 = torch.constant.int 12
    %1494 = torch.prim.ListConstruct %int1_1657, %int1_1658, %int12_1659 : (!torch.int, !torch.int, !torch.int) -> !torch.list<int>
    %1495 = torch.aten.view %1493, %1494 : !torch.vtensor<[1,12],f16>, !torch.list<int> -> !torch.vtensor<[1,1,12],f16>
    %int5_1660 = torch.constant.int 5
    %1496 = torch.prims.convert_element_type %1489, %int5_1660 : !torch.vtensor<[256,11],f32>, !torch.int -> !torch.vtensor<[256,11],f16>
    %int1_1661 = torch.constant.int 1
    %int256_1662 = torch.constant.int 256
    %1497 = torch.prim.ListConstruct %int1_1661, %int256_1662 : (!torch.int, !torch.int) -> !torch.list<int>
    %1498 = torch.aten.view %1485, %1497 : !torch.vtensor<[1,1,256],f16>, !torch.list<int> -> !torch.vtensor<[1,256],f16>
    %1499 = torch.aten.mm %1498, %1496 : !torch.vtensor<[1,256],f16>, !torch.vtensor<[256,11],f16> -> !torch.vtensor<[1,11],f16>
    %int1_1663 = torch.constant.int 1
    %int1_1664 = torch.constant.int 1
    %int11_1665 = torch.constant.int 11
    %1500 = torch.prim.ListConstruct %int1_1663, %int1_1664, %int11_1665 : (!torch.int, !torch.int, !torch.int) -> !torch.list<int>
    %1501 = torch.aten.view %1499, %1500 : !torch.vtensor<[1,11],f16>, !torch.list<int> -> !torch.vtensor<[1,1,11],f16>
    %1502 = torch.aten.silu %1495 : !torch.vtensor<[1,1,12],f16> -> !torch.vtensor<[1,1,12],f16>
    %1503 = torch.aten.silu %1501 : !torch.vtensor<[1,1,11],f16> -> !torch.vtensor<[1,1,11],f16>
    %int1_1666 = torch.constant.int 1
    %int0_1667 = torch.constant.int 0
    %1504 = torch.prim.ListConstruct %int1_1666, %int0_1667 : (!torch.int, !torch.int) -> !torch.list<int>
    %1505 = torch.aten.permute %64, %1504 : !torch.vtensor<[12,256],f32>, !torch.list<int> -> !torch.vtensor<[256,12],f32>
    %int1_1668 = torch.constant.int 1
    %int0_1669 = torch.constant.int 0
    %1506 = torch.prim.ListConstruct %int1_1668, %int0_1669 : (!torch.int, !torch.int) -> !torch.list<int>
    %1507 = torch.aten.permute %65, %1506 : !torch.vtensor<[11,256],f32>, !torch.list<int> -> !torch.vtensor<[256,11],f32>
    %int5_1670 = torch.constant.int 5
    %1508 = torch.prims.convert_element_type %1505, %int5_1670 : !torch.vtensor<[256,12],f32>, !torch.int -> !torch.vtensor<[256,12],f16>
    %int1_1671 = torch.constant.int 1
    %int256_1672 = torch.constant.int 256
    %1509 = torch.prim.ListConstruct %int1_1671, %int256_1672 : (!torch.int, !torch.int) -> !torch.list<int>
    %1510 = torch.aten.view %1484, %1509 : !torch.vtensor<[1,1,256],f16>, !torch.list<int> -> !torch.vtensor<[1,256],f16>
    %1511 = torch.aten.mm %1510, %1508 : !torch.vtensor<[1,256],f16>, !torch.vtensor<[256,12],f16> -> !torch.vtensor<[1,12],f16>
    %int1_1673 = torch.constant.int 1
    %int1_1674 = torch.constant.int 1
    %int12_1675 = torch.constant.int 12
    %1512 = torch.prim.ListConstruct %int1_1673, %int1_1674, %int12_1675 : (!torch.int, !torch.int, !torch.int) -> !torch.list<int>
    %1513 = torch.aten.view %1511, %1512 : !torch.vtensor<[1,12],f16>, !torch.list<int> -> !torch.vtensor<[1,1,12],f16>
    %int5_1676 = torch.constant.int 5
    %1514 = torch.prims.convert_element_type %1507, %int5_1676 : !torch.vtensor<[256,11],f32>, !torch.int -> !torch.vtensor<[256,11],f16>
    %int1_1677 = torch.constant.int 1
    %int256_1678 = torch.constant.int 256
    %1515 = torch.prim.ListConstruct %int1_1677, %int256_1678 : (!torch.int, !torch.int) -> !torch.list<int>
    %1516 = torch.aten.view %1485, %1515 : !torch.vtensor<[1,1,256],f16>, !torch.list<int> -> !torch.vtensor<[1,256],f16>
    %1517 = torch.aten.mm %1516, %1514 : !torch.vtensor<[1,256],f16>, !torch.vtensor<[256,11],f16> -> !torch.vtensor<[1,11],f16>
    %int1_1679 = torch.constant.int 1
    %int1_1680 = torch.constant.int 1
    %int11_1681 = torch.constant.int 11
    %1518 = torch.prim.ListConstruct %int1_1679, %int1_1680, %int11_1681 : (!torch.int, !torch.int, !torch.int) -> !torch.list<int>
    %1519 = torch.aten.view %1517, %1518 : !torch.vtensor<[1,11],f16>, !torch.list<int> -> !torch.vtensor<[1,1,11],f16>
    %1520 = torch.aten.mul.Tensor %1502, %1513 : !torch.vtensor<[1,1,12],f16>, !torch.vtensor<[1,1,12],f16> -> !torch.vtensor<[1,1,12],f16>
    %1521 = torch.aten.mul.Tensor %1503, %1519 : !torch.vtensor<[1,1,11],f16>, !torch.vtensor<[1,1,11],f16> -> !torch.vtensor<[1,1,11],f16>
    %int1_1682 = torch.constant.int 1
    %int0_1683 = torch.constant.int 0
    %1522 = torch.prim.ListConstruct %int1_1682, %int0_1683 : (!torch.int, !torch.int) -> !torch.list<int>
    %1523 = torch.aten.permute %66, %1522 : !torch.vtensor<[256,12],f32>, !torch.list<int> -> !torch.vtensor<[12,256],f32>
    %int1_1684 = torch.constant.int 1
    %int0_1685 = torch.constant.int 0
    %1524 = torch.prim.ListConstruct %int1_1684, %int0_1685 : (!torch.int, !torch.int) -> !torch.list<int>
    %1525 = torch.aten.permute %67, %1524 : !torch.vtensor<[256,11],f32>, !torch.list<int> -> !torch.vtensor<[11,256],f32>
    %int5_1686 = torch.constant.int 5
    %1526 = torch.prims.convert_element_type %1523, %int5_1686 : !torch.vtensor<[12,256],f32>, !torch.int -> !torch.vtensor<[12,256],f16>
    %int1_1687 = torch.constant.int 1
    %int12_1688 = torch.constant.int 12
    %1527 = torch.prim.ListConstruct %int1_1687, %int12_1688 : (!torch.int, !torch.int) -> !torch.list<int>
    %1528 = torch.aten.view %1520, %1527 : !torch.vtensor<[1,1,12],f16>, !torch.list<int> -> !torch.vtensor<[1,12],f16>
    %1529 = torch.aten.mm %1528, %1526 : !torch.vtensor<[1,12],f16>, !torch.vtensor<[12,256],f16> -> !torch.vtensor<[1,256],f16>
    %int1_1689 = torch.constant.int 1
    %int1_1690 = torch.constant.int 1
    %int256_1691 = torch.constant.int 256
    %1530 = torch.prim.ListConstruct %int1_1689, %int1_1690, %int256_1691 : (!torch.int, !torch.int, !torch.int) -> !torch.list<int>
    %1531 = torch.aten.view %1529, %1530 : !torch.vtensor<[1,256],f16>, !torch.list<int> -> !torch.vtensor<[1,1,256],f16>
    %int5_1692 = torch.constant.int 5
    %1532 = torch.prims.convert_element_type %1525, %int5_1692 : !torch.vtensor<[11,256],f32>, !torch.int -> !torch.vtensor<[11,256],f16>
    %int1_1693 = torch.constant.int 1
    %int11_1694 = torch.constant.int 11
    %1533 = torch.prim.ListConstruct %int1_1693, %int11_1694 : (!torch.int, !torch.int) -> !torch.list<int>
    %1534 = torch.aten.view %1521, %1533 : !torch.vtensor<[1,1,11],f16>, !torch.list<int> -> !torch.vtensor<[1,11],f16>
    %1535 = torch.aten.mm %1534, %1532 : !torch.vtensor<[1,11],f16>, !torch.vtensor<[11,256],f16> -> !torch.vtensor<[1,256],f16>
    %int1_1695 = torch.constant.int 1
    %int1_1696 = torch.constant.int 1
    %int256_1697 = torch.constant.int 256
    %1536 = torch.prim.ListConstruct %int1_1695, %int1_1696, %int256_1697 : (!torch.int, !torch.int, !torch.int) -> !torch.list<int>
    %1537 = torch.aten.view %1535, %1536 : !torch.vtensor<[1,256],f16>, !torch.list<int> -> !torch.vtensor<[1,1,256],f16>
    %1538 = torch_c.to_builtin_tensor %1531 : !torch.vtensor<[1,1,256],f16> -> tensor<1x1x256xf16>
    %1539 = flow.tensor.barrier %1538 : tensor<1x1x256xf16> on #hal.device.promise<@__device_0>
    %1540 = torch_c.from_builtin_tensor %1539 : tensor<1x1x256xf16> -> !torch.vtensor<[1,1,256],f16>
    %1541 = torch_c.to_builtin_tensor %1537 : !torch.vtensor<[1,1,256],f16> -> tensor<1x1x256xf16>
    %1542 = flow.tensor.transfer %1541 : tensor<1x1x256xf16> to #hal.device.promise<@__device_0>
    %1543 = torch_c.from_builtin_tensor %1542 : tensor<1x1x256xf16> -> !torch.vtensor<[1,1,256],f16>
    %int1_1698 = torch.constant.int 1
    %1544 = torch.aten.add.Tensor %1540, %1543, %int1_1698 : !torch.vtensor<[1,1,256],f16>, !torch.vtensor<[1,1,256],f16>, !torch.int -> !torch.vtensor<[1,1,256],f16>
    %1545 = torch_c.to_builtin_tensor %1544 : !torch.vtensor<[1,1,256],f16> -> tensor<1x1x256xf16>
    %1546 = flow.tensor.barrier %1545 : tensor<1x1x256xf16> on #hal.device.promise<@__device_0>
    %1547 = torch_c.from_builtin_tensor %1546 : tensor<1x1x256xf16> -> !torch.vtensor<[1,1,256],f16>
    %1548 = torch_c.to_builtin_tensor %1544 : !torch.vtensor<[1,1,256],f16> -> tensor<1x1x256xf16>
    %1549 = flow.tensor.transfer %1548 : tensor<1x1x256xf16> to #hal.device.promise<@__device_1>
    %1550 = torch_c.from_builtin_tensor %1549 : tensor<1x1x256xf16> -> !torch.vtensor<[1,1,256],f16>
    %int1_1699 = torch.constant.int 1
    %1551 = torch.aten.add.Tensor %1464, %1547, %int1_1699 : !torch.vtensor<[1,1,256],f16>, !torch.vtensor<[1,1,256],f16>, !torch.int -> !torch.vtensor<[1,1,256],f16>
    %int1_1700 = torch.constant.int 1
    %1552 = torch.aten.add.Tensor %1465, %1550, %int1_1700 : !torch.vtensor<[1,1,256],f16>, !torch.vtensor<[1,1,256],f16>, !torch.int -> !torch.vtensor<[1,1,256],f16>
    %int6_1701 = torch.constant.int 6
    %1553 = torch.prims.convert_element_type %1551, %int6_1701 : !torch.vtensor<[1,1,256],f16>, !torch.int -> !torch.vtensor<[1,1,256],f32>
    %int6_1702 = torch.constant.int 6
    %1554 = torch.prims.convert_element_type %1552, %int6_1702 : !torch.vtensor<[1,1,256],f16>, !torch.int -> !torch.vtensor<[1,1,256],f32>
    %int2_1703 = torch.constant.int 2
    %1555 = torch.aten.pow.Tensor_Scalar %1553, %int2_1703 : !torch.vtensor<[1,1,256],f32>, !torch.int -> !torch.vtensor<[1,1,256],f32>
    %int2_1704 = torch.constant.int 2
    %1556 = torch.aten.pow.Tensor_Scalar %1554, %int2_1704 : !torch.vtensor<[1,1,256],f32>, !torch.int -> !torch.vtensor<[1,1,256],f32>
    %int-1_1705 = torch.constant.int -1
    %1557 = torch.prim.ListConstruct %int-1_1705 : (!torch.int) -> !torch.list<int>
    %true_1706 = torch.constant.bool true
    %none_1707 = torch.constant.none
    %1558 = torch.aten.mean.dim %1555, %1557, %true_1706, %none_1707 : !torch.vtensor<[1,1,256],f32>, !torch.list<int>, !torch.bool, !torch.none -> !torch.vtensor<[1,1,1],f32>
    %int-1_1708 = torch.constant.int -1
    %1559 = torch.prim.ListConstruct %int-1_1708 : (!torch.int) -> !torch.list<int>
    %true_1709 = torch.constant.bool true
    %none_1710 = torch.constant.none
    %1560 = torch.aten.mean.dim %1556, %1559, %true_1709, %none_1710 : !torch.vtensor<[1,1,256],f32>, !torch.list<int>, !torch.bool, !torch.none -> !torch.vtensor<[1,1,1],f32>
    %float1.000000e-02_1711 = torch.constant.float 1.000000e-02
    %int1_1712 = torch.constant.int 1
    %1561 = torch.aten.add.Scalar %1558, %float1.000000e-02_1711, %int1_1712 : !torch.vtensor<[1,1,1],f32>, !torch.float, !torch.int -> !torch.vtensor<[1,1,1],f32>
    %float1.000000e-02_1713 = torch.constant.float 1.000000e-02
    %int1_1714 = torch.constant.int 1
    %1562 = torch.aten.add.Scalar %1560, %float1.000000e-02_1713, %int1_1714 : !torch.vtensor<[1,1,1],f32>, !torch.float, !torch.int -> !torch.vtensor<[1,1,1],f32>
    %1563 = torch.aten.rsqrt %1561 : !torch.vtensor<[1,1,1],f32> -> !torch.vtensor<[1,1,1],f32>
    %1564 = torch.aten.rsqrt %1562 : !torch.vtensor<[1,1,1],f32> -> !torch.vtensor<[1,1,1],f32>
    %1565 = torch.aten.mul.Tensor %1553, %1563 : !torch.vtensor<[1,1,256],f32>, !torch.vtensor<[1,1,1],f32> -> !torch.vtensor<[1,1,256],f32>
    %1566 = torch.aten.mul.Tensor %1554, %1564 : !torch.vtensor<[1,1,256],f32>, !torch.vtensor<[1,1,1],f32> -> !torch.vtensor<[1,1,256],f32>
    %int5_1715 = torch.constant.int 5
    %1567 = torch.prims.convert_element_type %1565, %int5_1715 : !torch.vtensor<[1,1,256],f32>, !torch.int -> !torch.vtensor<[1,1,256],f16>
    %int5_1716 = torch.constant.int 5
    %1568 = torch.prims.convert_element_type %1566, %int5_1716 : !torch.vtensor<[1,1,256],f32>, !torch.int -> !torch.vtensor<[1,1,256],f16>
    %1569 = torch.aten.mul.Tensor %68, %1567 : !torch.vtensor<[1,256],f32>, !torch.vtensor<[1,1,256],f16> -> !torch.vtensor<[1,1,256],f32>
    %1570 = torch.aten.mul.Tensor %69, %1568 : !torch.vtensor<[1,256],f32>, !torch.vtensor<[1,1,256],f16> -> !torch.vtensor<[1,1,256],f32>
    %int5_1717 = torch.constant.int 5
    %1571 = torch.prims.convert_element_type %1569, %int5_1717 : !torch.vtensor<[1,1,256],f32>, !torch.int -> !torch.vtensor<[1,1,256],f16>
    %int5_1718 = torch.constant.int 5
    %1572 = torch.prims.convert_element_type %1570, %int5_1718 : !torch.vtensor<[1,1,256],f32>, !torch.int -> !torch.vtensor<[1,1,256],f16>
    %int1_1719 = torch.constant.int 1
    %int0_1720 = torch.constant.int 0
    %1573 = torch.prim.ListConstruct %int1_1719, %int0_1720 : (!torch.int, !torch.int) -> !torch.list<int>
    %1574 = torch.aten.permute %70, %1573 : !torch.vtensor<[256,128],f32>, !torch.list<int> -> !torch.vtensor<[128,256],f32>
    %int1_1721 = torch.constant.int 1
    %int0_1722 = torch.constant.int 0
    %1575 = torch.prim.ListConstruct %int1_1721, %int0_1722 : (!torch.int, !torch.int) -> !torch.list<int>
    %1576 = torch.aten.permute %71, %1575 : !torch.vtensor<[256,128],f32>, !torch.list<int> -> !torch.vtensor<[128,256],f32>
    %int0_1723 = torch.constant.int 0
    %int0_1724 = torch.constant.int 0
    %int9223372036854775807_1725 = torch.constant.int 9223372036854775807
    %int1_1726 = torch.constant.int 1
    %1577 = torch.aten.slice.Tensor %1571, %int0_1723, %int0_1724, %int9223372036854775807_1725, %int1_1726 : !torch.vtensor<[1,1,256],f16>, !torch.int, !torch.int, !torch.int, !torch.int -> !torch.vtensor<[1,1,256],f16>
    %int1_1727 = torch.constant.int 1
    %int0_1728 = torch.constant.int 0
    %int9223372036854775807_1729 = torch.constant.int 9223372036854775807
    %int1_1730 = torch.constant.int 1
    %1578 = torch.aten.slice.Tensor %1577, %int1_1727, %int0_1728, %int9223372036854775807_1729, %int1_1730 : !torch.vtensor<[1,1,256],f16>, !torch.int, !torch.int, !torch.int, !torch.int -> !torch.vtensor<[1,1,256],f16>
    %int2_1731 = torch.constant.int 2
    %int0_1732 = torch.constant.int 0
    %int128_1733 = torch.constant.int 128
    %int1_1734 = torch.constant.int 1
    %1579 = torch.aten.slice.Tensor %1578, %int2_1731, %int0_1732, %int128_1733, %int1_1734 : !torch.vtensor<[1,1,256],f16>, !torch.int, !torch.int, !torch.int, !torch.int -> !torch.vtensor<[1,1,128],f16>
    %int0_1735 = torch.constant.int 0
    %int0_1736 = torch.constant.int 0
    %int9223372036854775807_1737 = torch.constant.int 9223372036854775807
    %int1_1738 = torch.constant.int 1
    %1580 = torch.aten.slice.Tensor %1572, %int0_1735, %int0_1736, %int9223372036854775807_1737, %int1_1738 : !torch.vtensor<[1,1,256],f16>, !torch.int, !torch.int, !torch.int, !torch.int -> !torch.vtensor<[1,1,256],f16>
    %int1_1739 = torch.constant.int 1
    %int0_1740 = torch.constant.int 0
    %int9223372036854775807_1741 = torch.constant.int 9223372036854775807
    %int1_1742 = torch.constant.int 1
    %1581 = torch.aten.slice.Tensor %1580, %int1_1739, %int0_1740, %int9223372036854775807_1741, %int1_1742 : !torch.vtensor<[1,1,256],f16>, !torch.int, !torch.int, !torch.int, !torch.int -> !torch.vtensor<[1,1,256],f16>
    %int2_1743 = torch.constant.int 2
    %int128_1744 = torch.constant.int 128
    %int256_1745 = torch.constant.int 256
    %int1_1746 = torch.constant.int 1
    %1582 = torch.aten.slice.Tensor %1581, %int2_1743, %int128_1744, %int256_1745, %int1_1746 : !torch.vtensor<[1,1,256],f16>, !torch.int, !torch.int, !torch.int, !torch.int -> !torch.vtensor<[1,1,128],f16>
    %int5_1747 = torch.constant.int 5
    %1583 = torch.prims.convert_element_type %1574, %int5_1747 : !torch.vtensor<[128,256],f32>, !torch.int -> !torch.vtensor<[128,256],f16>
    %int1_1748 = torch.constant.int 1
    %int128_1749 = torch.constant.int 128
    %1584 = torch.prim.ListConstruct %int1_1748, %int128_1749 : (!torch.int, !torch.int) -> !torch.list<int>
    %1585 = torch.aten.view %1579, %1584 : !torch.vtensor<[1,1,128],f16>, !torch.list<int> -> !torch.vtensor<[1,128],f16>
    %1586 = torch.aten.mm %1585, %1583 : !torch.vtensor<[1,128],f16>, !torch.vtensor<[128,256],f16> -> !torch.vtensor<[1,256],f16>
    %int1_1750 = torch.constant.int 1
    %int1_1751 = torch.constant.int 1
    %int256_1752 = torch.constant.int 256
    %1587 = torch.prim.ListConstruct %int1_1750, %int1_1751, %int256_1752 : (!torch.int, !torch.int, !torch.int) -> !torch.list<int>
    %1588 = torch.aten.view %1586, %1587 : !torch.vtensor<[1,256],f16>, !torch.list<int> -> !torch.vtensor<[1,1,256],f16>
    %int5_1753 = torch.constant.int 5
    %1589 = torch.prims.convert_element_type %1576, %int5_1753 : !torch.vtensor<[128,256],f32>, !torch.int -> !torch.vtensor<[128,256],f16>
    %int1_1754 = torch.constant.int 1
    %int128_1755 = torch.constant.int 128
    %1590 = torch.prim.ListConstruct %int1_1754, %int128_1755 : (!torch.int, !torch.int) -> !torch.list<int>
    %1591 = torch.aten.view %1582, %1590 : !torch.vtensor<[1,1,128],f16>, !torch.list<int> -> !torch.vtensor<[1,128],f16>
    %1592 = torch.aten.mm %1591, %1589 : !torch.vtensor<[1,128],f16>, !torch.vtensor<[128,256],f16> -> !torch.vtensor<[1,256],f16>
    %int1_1756 = torch.constant.int 1
    %int1_1757 = torch.constant.int 1
    %int256_1758 = torch.constant.int 256
    %1593 = torch.prim.ListConstruct %int1_1756, %int1_1757, %int256_1758 : (!torch.int, !torch.int, !torch.int) -> !torch.list<int>
    %1594 = torch.aten.view %1592, %1593 : !torch.vtensor<[1,256],f16>, !torch.list<int> -> !torch.vtensor<[1,1,256],f16>
    %1595 = torch_c.to_builtin_tensor %1588 : !torch.vtensor<[1,1,256],f16> -> tensor<1x1x256xf16>
    %1596 = flow.tensor.barrier %1595 : tensor<1x1x256xf16> on #hal.device.promise<@__device_0>
    %1597 = torch_c.from_builtin_tensor %1596 : tensor<1x1x256xf16> -> !torch.vtensor<[1,1,256],f16>
    %1598 = torch_c.to_builtin_tensor %1594 : !torch.vtensor<[1,1,256],f16> -> tensor<1x1x256xf16>
    %1599 = flow.tensor.transfer %1598 : tensor<1x1x256xf16> to #hal.device.promise<@__device_0>
    %1600 = torch_c.from_builtin_tensor %1599 : tensor<1x1x256xf16> -> !torch.vtensor<[1,1,256],f16>
    %int1_1759 = torch.constant.int 1
    %1601 = torch.aten.add.Tensor %1597, %1600, %int1_1759 : !torch.vtensor<[1,1,256],f16>, !torch.vtensor<[1,1,256],f16>, !torch.int -> !torch.vtensor<[1,1,256],f16>
    return %1601 : !torch.vtensor<[1,1,256],f16>
  }
  util.func private @sharktank_rotary_embedding_1_D_4_32_f32(%arg0: tensor<1x?x4x32xf32>, %arg1: tensor<1x?x32xf32>) -> tensor<1x?x4x32xf32> {
    %c0 = arith.constant 0 : index
    %c1 = arith.constant 1 : index
    %c2 = arith.constant 2 : index
    %c3 = arith.constant 3 : index
    %dim = tensor.dim %arg0, %c0 : tensor<1x?x4x32xf32>
    %dim_0 = tensor.dim %arg0, %c1 : tensor<1x?x4x32xf32>
    %dim_1 = tensor.dim %arg0, %c2 : tensor<1x?x4x32xf32>
    %dim_2 = tensor.dim %arg0, %c3 : tensor<1x?x4x32xf32>
    %0 = tensor.empty(%dim, %dim_0, %dim_1, %dim_2) : tensor<?x?x?x?xf32>
    %cast = tensor.cast %0 : tensor<?x?x?x?xf32> to tensor<1x?x4x32xf32>
    %1 = linalg.generic {indexing_maps = [#map, #map1], iterator_types = ["parallel", "parallel", "parallel", "parallel"]} ins(%arg1 : tensor<1x?x32xf32>) outs(%cast : tensor<1x?x4x32xf32>) {
    ^bb0(%in: f32, %out: f32):
      %2 = linalg.index 0 : index
      %3 = linalg.index 1 : index
      %4 = linalg.index 2 : index
      %5 = linalg.index 3 : index
      %6 = arith.divui %5, %c2 : index
      %7 = arith.remui %5, %c2 : index
      %8 = math.cos %in : f32
      %9 = math.sin %in : f32
      %10 = arith.muli %6, %c2 : index
      %11 = arith.addi %10, %c1 : index
      %extracted = tensor.extract %arg0[%2, %3, %4, %10] : tensor<1x?x4x32xf32>
      %extracted_3 = tensor.extract %arg0[%2, %3, %4, %11] : tensor<1x?x4x32xf32>
      %12 = arith.cmpi eq, %7, %c0 : index
      %13 = arith.mulf %extracted, %8 : f32
      %14 = arith.mulf %extracted_3, %9 : f32
      %15 = arith.subf %13, %14 : f32
      %16 = arith.mulf %extracted_3, %8 : f32
      %17 = arith.mulf %extracted, %9 : f32
      %18 = arith.addf %16, %17 : f32
      %19 = arith.select %12, %15, %18 : f32
      linalg.yield %19 : f32
    } -> tensor<1x?x4x32xf32>
    util.return %1 : tensor<1x?x4x32xf32>
  }
  util.func private @sharktank_rotary_embedding_1_D_2_32_f32(%arg0: tensor<1x?x2x32xf32>, %arg1: tensor<1x?x32xf32>) -> tensor<1x?x2x32xf32> {
    %c0 = arith.constant 0 : index
    %c1 = arith.constant 1 : index
    %c2 = arith.constant 2 : index
    %c3 = arith.constant 3 : index
    %dim = tensor.dim %arg0, %c0 : tensor<1x?x2x32xf32>
    %dim_0 = tensor.dim %arg0, %c1 : tensor<1x?x2x32xf32>
    %dim_1 = tensor.dim %arg0, %c2 : tensor<1x?x2x32xf32>
    %dim_2 = tensor.dim %arg0, %c3 : tensor<1x?x2x32xf32>
    %0 = tensor.empty(%dim, %dim_0, %dim_1, %dim_2) : tensor<?x?x?x?xf32>
    %cast = tensor.cast %0 : tensor<?x?x?x?xf32> to tensor<1x?x2x32xf32>
    %1 = linalg.generic {indexing_maps = [#map, #map1], iterator_types = ["parallel", "parallel", "parallel", "parallel"]} ins(%arg1 : tensor<1x?x32xf32>) outs(%cast : tensor<1x?x2x32xf32>) {
    ^bb0(%in: f32, %out: f32):
      %2 = linalg.index 0 : index
      %3 = linalg.index 1 : index
      %4 = linalg.index 2 : index
      %5 = linalg.index 3 : index
      %6 = arith.divui %5, %c2 : index
      %7 = arith.remui %5, %c2 : index
      %8 = math.cos %in : f32
      %9 = math.sin %in : f32
      %10 = arith.muli %6, %c2 : index
      %11 = arith.addi %10, %c1 : index
      %extracted = tensor.extract %arg0[%2, %3, %4, %10] : tensor<1x?x2x32xf32>
      %extracted_3 = tensor.extract %arg0[%2, %3, %4, %11] : tensor<1x?x2x32xf32>
      %12 = arith.cmpi eq, %7, %c0 : index
      %13 = arith.mulf %extracted, %8 : f32
      %14 = arith.mulf %extracted_3, %9 : f32
      %15 = arith.subf %13, %14 : f32
      %16 = arith.mulf %extracted_3, %8 : f32
      %17 = arith.mulf %extracted, %9 : f32
      %18 = arith.addf %16, %17 : f32
      %19 = arith.select %12, %15, %18 : f32
      linalg.yield %19 : f32
    } -> tensor<1x?x2x32xf32>
    util.return %1 : tensor<1x?x2x32xf32>
  }
  util.func private @sharktank_rotary_embedding_1_1_4_32_f32(%arg0: tensor<1x1x4x32xf32>, %arg1: tensor<1x1x32xf32>) -> tensor<1x1x4x32xf32> {
    %c0 = arith.constant 0 : index
    %c1 = arith.constant 1 : index
    %c2 = arith.constant 2 : index
    %c3 = arith.constant 3 : index
    %dim = tensor.dim %arg0, %c0 : tensor<1x1x4x32xf32>
    %dim_0 = tensor.dim %arg0, %c1 : tensor<1x1x4x32xf32>
    %dim_1 = tensor.dim %arg0, %c2 : tensor<1x1x4x32xf32>
    %dim_2 = tensor.dim %arg0, %c3 : tensor<1x1x4x32xf32>
    %0 = tensor.empty(%dim, %dim_0, %dim_1, %dim_2) : tensor<?x?x?x?xf32>
    %cast = tensor.cast %0 : tensor<?x?x?x?xf32> to tensor<1x1x4x32xf32>
    %1 = linalg.generic {indexing_maps = [#map, #map1], iterator_types = ["parallel", "parallel", "parallel", "parallel"]} ins(%arg1 : tensor<1x1x32xf32>) outs(%cast : tensor<1x1x4x32xf32>) {
    ^bb0(%in: f32, %out: f32):
      %2 = linalg.index 0 : index
      %3 = linalg.index 1 : index
      %4 = linalg.index 2 : index
      %5 = linalg.index 3 : index
      %6 = arith.divui %5, %c2 : index
      %7 = arith.remui %5, %c2 : index
      %8 = math.cos %in : f32
      %9 = math.sin %in : f32
      %10 = arith.muli %6, %c2 : index
      %11 = arith.addi %10, %c1 : index
      %extracted = tensor.extract %arg0[%2, %3, %4, %10] : tensor<1x1x4x32xf32>
      %extracted_3 = tensor.extract %arg0[%2, %3, %4, %11] : tensor<1x1x4x32xf32>
      %12 = arith.cmpi eq, %7, %c0 : index
      %13 = arith.mulf %extracted, %8 : f32
      %14 = arith.mulf %extracted_3, %9 : f32
      %15 = arith.subf %13, %14 : f32
      %16 = arith.mulf %extracted_3, %8 : f32
      %17 = arith.mulf %extracted, %9 : f32
      %18 = arith.addf %16, %17 : f32
      %19 = arith.select %12, %15, %18 : f32
      linalg.yield %19 : f32
    } -> tensor<1x1x4x32xf32>
    util.return %1 : tensor<1x1x4x32xf32>
  }
  util.func private @sharktank_rotary_embedding_1_1_2_32_f32(%arg0: tensor<1x1x2x32xf32>, %arg1: tensor<1x1x32xf32>) -> tensor<1x1x2x32xf32> {
    %c0 = arith.constant 0 : index
    %c1 = arith.constant 1 : index
    %c2 = arith.constant 2 : index
    %c3 = arith.constant 3 : index
    %dim = tensor.dim %arg0, %c0 : tensor<1x1x2x32xf32>
    %dim_0 = tensor.dim %arg0, %c1 : tensor<1x1x2x32xf32>
    %dim_1 = tensor.dim %arg0, %c2 : tensor<1x1x2x32xf32>
    %dim_2 = tensor.dim %arg0, %c3 : tensor<1x1x2x32xf32>
    %0 = tensor.empty(%dim, %dim_0, %dim_1, %dim_2) : tensor<?x?x?x?xf32>
    %cast = tensor.cast %0 : tensor<?x?x?x?xf32> to tensor<1x1x2x32xf32>
    %1 = linalg.generic {indexing_maps = [#map, #map1], iterator_types = ["parallel", "parallel", "parallel", "parallel"]} ins(%arg1 : tensor<1x1x32xf32>) outs(%cast : tensor<1x1x2x32xf32>) {
    ^bb0(%in: f32, %out: f32):
      %2 = linalg.index 0 : index
      %3 = linalg.index 1 : index
      %4 = linalg.index 2 : index
      %5 = linalg.index 3 : index
      %6 = arith.divui %5, %c2 : index
      %7 = arith.remui %5, %c2 : index
      %8 = math.cos %in : f32
      %9 = math.sin %in : f32
      %10 = arith.muli %6, %c2 : index
      %11 = arith.addi %10, %c1 : index
      %extracted = tensor.extract %arg0[%2, %3, %4, %10] : tensor<1x1x2x32xf32>
      %extracted_3 = tensor.extract %arg0[%2, %3, %4, %11] : tensor<1x1x2x32xf32>
      %12 = arith.cmpi eq, %7, %c0 : index
      %13 = arith.mulf %extracted, %8 : f32
      %14 = arith.mulf %extracted_3, %9 : f32
      %15 = arith.subf %13, %14 : f32
      %16 = arith.mulf %extracted_3, %8 : f32
      %17 = arith.mulf %extracted, %9 : f32
      %18 = arith.addf %16, %17 : f32
      %19 = arith.select %12, %15, %18 : f32
      linalg.yield %19 : f32
    } -> tensor<1x1x2x32xf32>
    util.return %1 : tensor<1x1x2x32xf32>
  }
}
